my_project/controllers/my_controller/results/after curriculum learning/best_weights.pt (torch, 15290 bytes, 6 tensors)

fc1.weight f4 [34, 17]
00000000: 8925 193c f237 71be c7a5 5b3e eb39 04be
00000010: 998a 373d 2d1a cf3e 02a2 933e 63d4 5b3b
00000020: 40c2 37bd 91da 983e a06f 37be b253 033d
00000030: b5b7 723e c85f 3bbe 3183 06bc 0fb9 ebbd
00000040: a7ff fdbd fde3 80bd 04f5 2d3d ee90 54be
00000050: 7ec4 063e d13c f0bd ceaa 423e cdff e3bd
00000060: bfe4 6abd 28ff 49be ffc0 033d 36e8 003e
00000070: 45f2 c0bc 9636 0f3e edde b1bd 79eb 80be
00000080: 1768 303e 7585 bebd 8237 8fbd b479 88be
00000090: aa58 93be ba70 8abd 99eb 1c3e 7294 ac3e
000000a0: b1ee 163e 1c94 ad3e 4c6a f7b9 bce9 843e
000000b0: 4061 be3d 0e7f 6ebe ba13 f83d e75a 16be
000000c0: 9696 89be c71a a1be 5ec3 d2be 0128 223d
000000d0: ae3a 0fbe 2593 b1bd 34bf 133e 67ab 823e
000000e0: eddc 4fbe 7f9e ae3e 88db 6d3e ded3 b83e
000000f0: 56bc de3e 8b04 023d 37d5 d33d b364 b43d
00000100: a16b 93bc ecfa 543d 6dba 2fbe 8223 89bd
00000110: e0eb a23c 3c11 913d 9e49 9c3d e223 e53e
00000120: 55a1 e03c 8637 833e 60cb 283d a1fa c3bd
00000130: f00f 19be 1cc3 d1be 1b12 bcbd fa9c c33d
00000140: 69d9 8e3d ba19 6b3d a60d 903d 2c8a 6a3c
00000150: 1b16 4e3e 9e18 893e 086a c03c ac45 63be
00000160: f469 80be 6860 233c 0091 e8be dfad e1bd
00000170: 3b15 03be 3979 7d3e 31f5 ce3c 3f61 87bc
00000180: 807a bf3d e7c0 fc3d 39d9 e9bd f13e 633e
00000190: 93df ac3e 82be 013e 6320 5d3e 284b a4be
000001a0: 2a10 99be b816 6fbe a458 43bd 6cf8 c8bd
000001b0: 10c6 b5bc 5ca8 28be 29d5 b53e c137 e53e
000001c0: e161 a4bc 39dd a63d c603 683c 9a7d 193e
000001d0: 7e28 653e b646 19be fe24 cdbd f90d a8be
000001e0: fba6 ccbd a613 0c3f 7337 663e b8b8 6e3e
000001f0: e1c4 36be 52d5 03be f409 fe3d cf09 423e
00000200: 7219 42be 5e57 133e e641 c03d 2058 90bc
00000210: 6ed2 e5bd 3fb8 45bd 7af3 183e 7814 cd3d
00000220: e734 923e 4b6c 1f3e f7ae 313e f05a 813d
00000230: da7e f4bd 0916 82be bcaa a53d 621d bbbe
00000240: 7f05 1ebe 29e4 a8bd ef8b 783e db87 c8bc
00000250: 1bb0 aabc 1b11 aa3e e73c 923e 852a f83c
00000260: c02a 143f 9505 a3bd 22fc 2c3e b1c9 97bd
00000270: 7c50 d93d a9cc 353e 9c3f da3d 0ae7 783c
00000280: a246 04bd 22f5 16be 95d8 0bbe 9475 4dbd
00000290: 395b 013e 953e 68be 6214 c4bc 787f e7bd
000002a0: 39d5 21be ce6f 633e cec6 3d3d c094 d83c
000002b0: 9c2f b3be 8d6b ad3c ea11 5c3e ed1c 653c
000002c0: bc1e 513e e02e 273e c750 ff3e 5e38 d83e
000002d0: 27f5 263d 92e8 273d 2ad4 5f3d 0739 033e
000002e0: a09d 05be b71b ea3d a2f6 96be 4a17 103e
000002f0: 03cc b7be c440 9e3d 3e96 623e 5687 043f
00000300: 461a a53e 3178 ac3e 0b0e dc3e 1f26 a43b
00000310: b636 bb3e 1d49 24be c240 85bd 502e 453e
00000320: 4c9d 06be 57d8 12be 6f1a 32bd 59db 20bd
00000330: a149 223e 04f1 923e 57e8 9b3e 8252 593e
00000340: b5d0 79be 39b9 8d3d 4dbc 16be d952 ac3d
00000350: 2703 f9bd fc06 3cbe 2ce7 b2bd 7787 32be
00000360: 3e74 a1bd 9fa8 e7bd 3d52 6c3e f264 803d
00000370: 6438 833e 622b 9e3d 1cda 4b3e 0f1c c93e
00000380: ff28 c93e d52a 313d a9e2 783e e0a0 66be
00000390: fc38 cebc 88ef ffbe d78c 72be aa6c 243e
000003a0: dab8 b4bc d95a 8d3d 235f 723e b911 3a3d
000003b0: b37f 3d3e 037b a53e 902a b63d e2a2 b8bd
000003c0: a20c acbe 732c 213d 3757 82be e4b8 9fbe
000003d0: 2340 563e 571b 4cbe 8c06 b13d 81f9 253e
000003e0: 0610 a93e f27f 11be 3ba8 8b3e a8ea 39be
000003f0: d06b 373c 6f7a de3d 536f 8a3b 31d5 b43e
0.009347328 -0.23556498 0.21449958 -0.12912719 0.04480991 0.40449658 0.2883454 0.003354334
-0.044862986 0.29854253 -0.17913675 0.03206224 0.23702891 -0.18298256 -0.008209989 -0.115099065
-0.124022774 -0.06293485 0.042469993 -0.20758411 0.13160893 -0.1173035 0.1901047 -0.111327745
-0.057347056 -0.1972624 0.032166477 0.12588581 -0.023553023 0.13985667 -0.08685098 -0.2517965
0.17227207 -0.09302799 -0.06993009 -0.26655352 -0.28778583 -0.06759782 0.15324248 0.33707005
0.14739491 0.3390206 -0.0004719071 0.25959575 0.09295893 -0.23290655 0.121131375 -0.14683114
-0.268727 -0.31465742 -0.41164678 0.039588932 -0.13987228 -0.08670644 0.14428407 0.25521395
-0.2029912 0.34105298 0.23228276 0.36099142 0.43503064 0.031742614 0.10343402 0.08808269
-0.017995657 0.05199711 -0.1716096 -0.06696226 0.019887865 0.07083365 0.07631229 0.4475394
0.02742068 0.256283 0.04120958 -0.09569288 -0.14947486 -0.4096917 -0.09183141 0.09551425
0.069750614 0.05739758 0.07033853 0.014315169 0.2012562 0.26776594 0.02348806 -0.22194546
-0.25080836 0.0099717155 -0.45423126 -0.110194914 -0.12801068 0.24753274 0.0252634 -0.016525863
0.09349537 0.12341481 -0.11418385 0.22191979 0.33764324 0.12670329 0.21594386 -0.3208859
-0.29895145 -0.2334851 -0.047691956 -0.09813008 -0.02218917 -0.16470474 0.3551419 0.447691
-0.020066204 0.081476636 0.014161056 0.1498932 0.22378728 -0.1496838 -0.10016821 -0.3282316
-0.099927865 0.5471748 0.2248209 0.23312652 -0.17848541 -0.12874344 0.12404242 0.18949054
-0.18955019 0.14388797 0.09387569 -0.017620146 -0.11221777 -0.048271414 0.14936629 0.1001367
0.28555986 0.15568654 0.173519 0.06316173 -0.119382575 -0.25407436 0.080892056 -0.36545855
-0.15431784 -0.08246643 0.2427213 -0.024478843 -0.020835927 0.33216175 0.2856209 0.030293712
0.5787773 -0.07960049 0.16893056 -0.074115165 0.10611054 0.17753853 0.10656664 0.015191803
-0.032293923 -0.14741948 -0.13656838 -0.05016096 0.12632455 -0.22680123 -0.0239355 -0.113036096
-0.15803994 0.22210619 0.046332173 0.026438117 -0.3499726 0.021169448 0.21491209 0.013983947
0.2042188 0.16326475 0.49866316 0.42230505 0.04076114 0.04099328 0.054645695 0.12814723
-0.1304841 0.114310674 -0.2948504 0.14071384 -0.35897836 0.07727197 0.22127625 0.51769006
0.32246608 0.3368545 0.42979464 0.005009427 0.3656518 -0.16043516 -0.06506492 0.19255948
-0.13145941 -0.1434034 -0.04348224 -0.039271686 0.158484 0.28699505 0.304507 0.2122288
-0.24396022 0.06920094 -0.14720269 0.084142394 -0.121588044 -0.1836204 -0.08735499 -0.17434488
-0.078834996 -0.11311459 0.23078246 0.06269254 0.2562896 0.07723118 0.19907421 0.3927922
0.3928909 0.04325374 0.24305214 -0.22522306 -0.025173657 -0.49987435 -0.23686539 0.16057077
-0.0220608 0.069020934 0.23669104 0.045427058 0.18505745 0.32320413 0.08894837 -0.090154424
-0.33603388 0.03934903 -0.25457165 -0.31195748 0.20922904 -0.19932304 0.08643827 0.1620846
0.33020037 -0.14208964 0.27276787 -0.1815592 0.011195138 0.10863196 0.0042246967 0.35318902

fc1.bias f4 [34]
00000000: 5084 483d f4ee 87be 190c f03d 872b 333e
00000010: a317 a13d e6f2 0c3e 866c 5a3e 100f f53d
00000020: dd87 523e c94a 12be 8f45 2a3e e4d3 d2bb
00000030: 68d0 1d3d 5142 87bd b896 c93e ed29 483d
00000040: cc15 48bd cfc6 543e 59d4 a63e 9039 34bd
00000050: d661 b03e 9cfa 823e 7dca 7e3e 9cdf aa3e
00000060: 35a3 393d c7e4 3f3e bbef 303d d9ee a03d
00000070: 3a1b df3d 40b4 923e c64b a33e a6ed 79be
00000080: 6d64 2abd 3d84 6e3e
0.048954308 -0.26549494 0.117210574 0.17497073 0.078658365 0.13764533 0.21330461 0.119657636
0.2055964 -0.14286341 0.16628097 -0.0064339507 0.03852883 -0.06604446 0.39372802 0.04886811
-0.048848912 0.20778964 0.32583883 -0.04400021 0.34449643 0.25581825 0.2488193 0.33373725
0.045321662 0.18739615 0.043197375 0.078580566 0.10893865 0.28653145 0.31893748 -0.24407062
-0.04159968 0.23292632

fc2.weight f4 [68, 34]
00000000: 6d24 6dbe c113 b73d 0017 513e 2b3c 813d
00000010: d84a 0e3e fbf1 93bd d243 b33d 885f 733e
00000020: 620a 8ebd 2661 623e 6e74 83bc 3385 4c3e
00000030: f33e b7bd 66b9 8e3e a29f 55bd c290 693e
00000040: 9ca0 3c3e 699f dd3c c48c 3abd 9060 19bd
00000050: c29a bbba d79b 9bbd c438 5b3e 3a3d eb3d
00000060: 6763 763e 7a3d 4c3e 53be 633e cf85 ab3b
00000070: 5cd1 c2bd 6cf1 01bd 33e5 f23c ae35 c7bc
00000080: 9a90 36bb dcae 2c3c 61c6 babe 5ab2 233e
00000090: f52d bfbe 34fc 1c3d aa57 3bbd 7f26 b13e
000000a0: 6a09 1c3e 80b9 1fbe b076 933e 98b2 18be
000000b0: 56eb 3f3c 1624 b6be dcc2 1c3e 6bcf 78bd
000000c0: 3f40 b03e eff1 f1bd 870a a4be 008c cbbc
000000d0: d518 b23e 0142 8cbd 75df 613e 8ab5 af3e
000000e0: 224c 6ebc 0200 903e f6fc d8bd 0377 113e
000000f0: 7a69 84be afcc febb 6822 953d e784 573e
00000100: 3845 a03e 27cb 9fbd 637d 553c d2a6 713c
00000110: 30a7 79be 8953 1b3c d1ca 17be 9ee5 d4bd
00000120: dc2c b43d 095b a03d 1451 51bd 42fd af3d
00000130: 403c e93e 36f1 c13d 0bfa 01be b8d8 53be
00000140: c8c7 2a3e 95f3 463e fffe 0c3e 07ae d83d
00000150: 4f5f 06be dd17 1dbe d789 903e fe73 6c3e
00000160: e0b8 513e ec7f c73e 389f 52bc 4813 863e
00000170: 921e 41be 118b c5bd 1404 6cbe 496d 27be
00000180: 57b4 bd3d a5df 723e a86e d43d 2e40 24bd
00000190: 6611 f63b 8326 803d 4f5b 773e fe7a e43d
000001a0: 88de 0a3e 6833 413e d8fa 293e 8256 90bd
000001b0: 6924 18be c3f4 b33d 52be 79be 27f9 a7bd
000001c0: 6514 aabd ab5f 2e3e 7c9e 343e 8524 63bd
000001d0: ae52 b63c b25a f7bb a6e0 823e cc6a 393e
000001e0: 3062 20be c434 673e 0f82 48bd eb69 68be
000001f0: dead e7bd 3f5a f43d c569 65bd 56a4 86bd
00000200: 8e70 783d 3eae e7bd 3fde 61be b1fa 483d
00000210: 8a5c a13d 3593 a9bd 78da 273e 6110 01bd
00000220: e25b b2be e3f4 a33c e566 b8be 9a0b 9dbd
00000230: b690 1abe 488c c03e ea7c 663e 1d7d 55be
00000240: 0d4f 733e 33a7 25be f7c1 253e 9cc3 93be
00000250: 9bc1 4d3d e00d 2c3d 5c33 693e 2129 70be
00000260: 0a05 7abe 551d 393e c1d5 b93e e4a3 9b3c
00000270: a0a5 283e 60e0 e53e 3e5b bc3d 10c5 3c3e
00000280: cf3f b1be 3bb3 0d3e a1c9 85be bf35 f0bd
00000290: 6e34 913e 053a 233d 4721 283e 5757 fd3d
000002a0: 4bb8 0e3e d22f 17bd acf7 6fbd ea20 9cbd
000002b0: b6f3 febd 6bfc 24be 9fa1 89bd 4230 e83d
000002c0: 006b 103a 100b 88bd 9c37 b0bd 3e25 b93d
000002d0: 00ff 913c 207b 553c bc5a 6bbd 1c28 3fbd
000002e0: 65a4 043e 36b9 c93d fdc8 c6bd 90c3 413d
000002f0: 7d24 ffbd 1e2b f53d 3265 f2bd b6e4 d0bd
00000300: e0b1 06bd 961a d9bd a06f 1abc 22c7 c6bd
00000310: c08d 573d 08c4 08bd 183f bbbc c865 1fbe
00000320: 7689 b3bd 10fb 83bd 6045 773d b5d5 2c3e
00000330: beae 563d b0d6 553c 35cc 113e 99d5 3ebc
00000340: 5b37 2cbe dbfd 053d b4b7 003e 687e 41be
00000350: 5ed5 363c 81ce 44be 1ac5 babc 7424 e63d
00000360: 3818 483d b0df 3cbe 3de5 33be b9be c2bd
00000370: 44f5 273d 27be 3c3c aaee cdbd 1eed 873d
00000380: a9b5 f1bd fdf3 893d a30f 0abe 078f 10be
00000390: f3b0 0a3e d152 f1bd 6362 ed3d bfc6 0fbe
000003a0: b378 08bb dcef 023e f1dc 2abe df0d c1bd
000003b0: 1c4b 97bd 2b33 cbbd 10b6 03bd ea56 a1bd
000003c0: 94bb 2dbe 4fd5 2cbe 82f7 1fbe 4a33 8cbd
000003d0: 282a c8bd 6ad8 9b3d 956a 273e 88d0 46bd
000003e0: 8acb 903d 4fd6 2e3e d594 06be 407e 3bbc
000003f0: 9a16 d23d dc98 03bd 2f24 e6bd 0bff e5bd
-0.23158427 0.08939315 0.2041893 0.06310304 0.13895738 -0.072238885 0.0875317 0.23766911
-0.06935574 0.22107372 -0.016046729 0.19972686 -0.089475535 0.27875823 -0.05215419 0.22809127
0.18420643 0.027053552 -0.0455444 -0.037445605 -0.0014313089 -0.075980835 0.21408373 0.114862874
0.24061356 0.19945326 0.22240572 0.005234457 -0.095125884 -0.03172438 0.029650306 -0.024317589
-0.0027857185 0.010539737 -0.36479476 0.15986004 -0.3733975 0.038326457 -0.0457379 0.34599683
0.15237966 -0.15598106 0.2880149 -0.14911878 0.011713823 -0.35574406 0.15308708 -0.060744684
0.34424016 -0.11813723 -0.32039282 -0.02484703 0.3478457 -0.06848527 0.22057898 0.3431819
-0.014544519 0.28125006 -0.105951235 0.14205556 -0.25861722 -0.007775865 0.07281953 0.21046792
0.3130281 -0.0780242 0.013030383 0.014749246 -0.24380183 0.009480366 -0.14823462 -0.103953585
0.08797619 0.078298636 -0.051102713 0.08593227 0.4555378 0.094698355 -0.1269304 -0.2068814
0.16677773 0.19428857 0.13769148 0.10580068 -0.13122295 -0.15341134 0.28230163 0.23091123
0.2048068 0.38964784 -0.0128553435 0.26186585 -0.18859318 -0.096456654 -0.2304843 -0.16350283
0.09262913 0.23718126 0.103726685 -0.04010027 0.0075093983 0.062573455 0.24155925 0.111562714
0.13561451 0.18867266 0.16599596 -0.0704775 -0.1485764 0.08786919 -0.24389008 -0.08201819
-0.08304671 0.17028682 0.17638582 -0.05545475 0.022256222 -0.0075486535 0.25562018 0.18107146
-0.15662456 0.22578722 -0.04895216 -0.22696654 -0.113124594 0.119312756 -0.056009073 -0.06574313
0.060654216 -0.11312531 -0.22057436 0.049067203 0.078789786 -0.08280031 0.16391933 -0.03150976
-0.34835726 0.020014232 -0.36016002 -0.076682284 -0.15094265 0.37607026 0.22508588 -0.20848508
0.23760624 -0.16177063 0.16187273 -0.28860176 0.050233465 0.04200542 0.22773498 -0.2345319
-0.24415985 0.18077596 0.36295894 0.018999048 0.16469431 0.44897747 0.091970906 0.18434548
-0.34618995 0.13837902 -0.26130393 -0.11729001 0.28360313 0.039850254 0.16418944 0.123701744
0.1393749 -0.03691084 -0.058585808 -0.07623465 -0.12448828 -0.16111915 -0.0672028 0.113373294
0.00055091083 -0.06642735 -0.08604357 0.090403065 0.017821789 0.013029844 -0.057459578 -0.04666911
0.12953337 0.09849779 -0.09706304 0.047305644 -0.124581315 0.119711146 -0.11835708 -0.10199873
-0.03288448 -0.10600774 -0.009426028 -0.0970595 0.052625418 -0.033390075 -0.022857234 -0.1556617
-0.08766453 -0.06444371 0.060368896 0.16878398 0.05241274 0.013051674 0.14238055 -0.011647605
-0.16817991 0.0327128 0.12570077 -0.18895876 0.011159269 -0.192194 -0.022799063 0.11237422
0.04885122 -0.18444705 -0.17567916 -0.09509034 0.041005388 0.011519945 -0.10055287 0.066370234
-0.11802227 0.0673599 -0.13482527 -0.1411706 0.13544063 -0.11783374 0.115910314 -0.1404066
-0.0020823895 0.12786812 -0.16685845 -0.09426474 -0.07387373 -0.09921869 -0.03215605 -0.07877906
-0.16966087 -0.16878246 -0.1562176 -0.0684572 -0.09773666 0.07609637 0.16349252 -0.048538715
0.07070072 0.1707394 -0.13142712 -0.011443675 0.10258217 -0.0321282 -0.1123737 -0.11230286

fc2.bias f4 [68]
00000000: b25d 6abd 7fd6 1a3e 99ff 963d 06ab eebd
00000010: 5b88 3b3e dc53 68bd 00a4 19be 5245 1abe
00000020: 66df 89bd 0f8b f03d b43d cfbc fa21 073d
00000030: f550 29be f159 363e ab5b dd3d 7a07 d23c
00000040: c332 42bd 0930 f13d e0ea c0bc 3edd 34bc
00000050: 4918 bbbc f41a 803c dda3 eb3b 3253 8abd
00000060: bb0f 0e3e 8c9c f4bd a8f5 2f3e 3663 2c3e
00000070: c498 03be 3646 553e d027 103e cea7 663e
00000080: 539f 8b3d 7469 9f3d 5c3d edbb e937 1abe
00000090: b536 08be 1967 643d b726 27be 0bc5 d6bc
000000a0: 236b 20be ba76 3c3d 06e0 723d 8a7f e9bc
000000b0: 3c34 b2bd f8bc c6bd 1d48 36be 954c a7bc
000000c0: 8392 0cbe 8d22 4cbe 9b52 28be 9938 5d3e
000000d0: f174 01bd b9e5 27be 5005 cf3d 6694 bebd
000000e0: 3ccd 31be 42a2 4d3e bc4b 183e 9085 4e3e
000000f0: b495 95bc 95a6 d0bd 9cc8 6b3d 7b53 ed3d
00000100: eeb1 273e 6df8 5e3c 0842 553e 14a1 c33d
-0.05721826 0.15120886 0.0737297 -0.11653714 0.18313734 -0.0567206 -0.15003967 -0.15065506
-0.06732063 0.11745273 -0.025297977 0.032991387 -0.16534789 0.17807747 0.108085 0.02563833
-0.04741169 0.1177674 -0.023549497 -0.011039076 -0.022838729 0.015637852 0.007191165 -0.067541495
0.13873188 -0.119439214 0.17183554 0.16834721 -0.12851244 0.20827565 0.14077687 0.2252495
0.06817498 0.077837855 -0.0072399806 -0.1506039 -0.13302119 0.055762384 -0.16323362 -0.026217004
-0.1566587 0.046011664 0.059295677 -0.028503198 -0.08701369 -0.09704012 -0.17800947 -0.02042226
-0.13727765 -0.19935055 -0.16437761 0.21603622 -0.031605665 -0.16396226 0.10108435 -0.093056485
-0.17363447 0.20081428 0.1487264 0.20168138 -0.01825986 -0.10188023 0.057564363 0.11588188
0.16376469 0.013609034 0.2082597 0.095522076

fc3.weight f4 [3, 68]
00000000: 88c6 92bd 3850 913e c56e 863e 8567 d1bd
00000010: af0c 7f3e 227d e9bd 639a 623d c019 ae3d
00000020: c3e6 8fbe 6366 80bd f84f 25bd 3b75 85bd
00000030: de6c 35bd 8d64 53be 27dc 0d3d f3a4 ad3e
00000040: dbbe 53be 27d2 a5bc b0cb 10be 19d0 9bbe
00000050: 888e 9ebd 2ee8 84be 7e53 203d df65 36bd
00000060: 9123 823e 0259 0a3d 4321 393e d168 71be
00000070: 9838 10bc d892 343e ac6c d53d 57f3 5e3d
00000080: d44f 763e 4f32 b03e 4603 443d aa57 debd
00000090: 9e47 dcbd 834a a23e 17dc bcbd 934d 88be
000000a0: 806a 103c 5483 383e b717 c0be eaaf c5bd
000000b0: f878 5d3d 34d7 d0bd ce99 6b3a c7f3 6dbe
000000c0: 48da d9bc 7d15 84be 6fba 62bd e784 8b3e
000000d0: 7d78 42be 942b 0e3d 0a2b 943e cb33 b53d
000000e0: a624 2b3d c16d dbbd 9d7c 96bd 7cd1 de3b
000000f0: 9f2b 94be 4626 b93d b4af b93d dcb9 353e
00000100: 2e64 0f3e f6b2 c33c 1ee7 8c3e 81a9 953d
00000110: 234a 073e 3b59 f8bc bb2d 183e 8d46 a63d
00000120: 2191 b8bd 9e0f 2abd 3422 59bc fa8a c23d
00000130: e662 7bbd 5bf8 a0bd 4260 88bd df83 603e
00000140: a856 5e3d 9761 8a3d 5f92 823e 151a c73d
00000150: 74da 983e 2001 a23e 2c0b 9b3e 95a2 e13d
00000160: b39b 8bbd 6ad4 c8bd d6d4 863e ebce 68bd
00000170: acb0 e53d c23f 8dbd 32c4 33be 1a09 563e
00000180: 508f a6bb 3931 c63d 45c0 543e 3247 a2be
00000190: f3a0 e4be 37d2 aebe c54e 923c 1f37 70bc
000001a0: 13ab 223d 1bb7 bdbe 3ebe 213d ddf7 153e
000001b0: dfa7 9abd 3812 08bf f0c0 983e 82ad f23d
000001c0: 5f4d fb3b e12e f7bc 2d5c 283e 7080 38bd
000001d0: 60f0 a6bb 0c23 b7bd 3984 8bbc 14be f5bc
000001e0: 3e67 cd3e 50ed 833d 2abc b3be 5eb8 80bb
000001f0: a362 953d aa2b a53e e93b b13e 5b05 1b3e
00000200: 47db 9fbd 4612 873d f175 3d3e 991f f0be
00000210: d5b4 d6be a3b9 cbbb 9175 86bd 9e2e 853e
00000220: fcec 933d 6b37 6dbe e7cf a8be d483 d73d
00000230: 8801 87be daf3 7ebd 924c 493d 703d f4bb
00000240: 1d6b a53e 0f05 0f3e 741e 83bd 6503 9f3d
00000250: 885c 9bbd c8f7 983d 8ddc a2be 1cef cdbe
00000260: 5629 c6bd e7d3 c5be 1b3c 3ebe e3d4 803e
00000270: 5aba 41bd 2fa8 893e 0994 b7bd 2139 abbb
00000280: 4f06 3bbe fcd1 ccbb a33a 1f3e 9483 e03d
00000290: 2831 7c3d 5031 63be 2e75 d3be 5f78 783e
000002a0: c09b 7a3d c940 313e d65c 64bd 89df 0a3d
000002b0: 1ab8 fabc 8bba 953d 1c88 d33c e033 413c
000002c0: 2eff 953d 2e50 de3d 6f16 983e 8cc4 b8bd
000002d0: b50b 0b3d ec3d e53c 0640 913d e8e1 b33e
000002e0: 0304 84bd dad8 253e a628 72bd 0964 70be
000002f0: 17e1 febd 0718 9ebc 761a 0c3d d31f 063e
00000300: da31 22bc 174c d3bd b3a6 97be c395 b7be
00000310: 7f5d 803e 247e b4bd 0779 a9be 55fc ee3d
00000320: 2dca 963e bfcb b83d eaba fbbd fa72 91be
-0.07166773 0.28381515 0.26256385 -0.10224823 0.24907182 -0.1140082 0.055323016 0.08501005
-0.28105745 -0.06269529 -0.040359467 -0.065165006 -0.044293277 -0.20643826 0.03463378 0.3391491
-0.20678274 -0.02024181 -0.141402 -0.30432203 -0.077420294 -0.2595839 0.039142124 -0.044530746
0.2541776 0.03377629 0.18079095 -0.2357514 -0.0088025555 0.17634141 0.10421118 0.054431286
0.2405389 0.34413382 0.047854684 -0.10856564 -0.107558474 0.31697473 -0.09221666 -0.26621684
0.008814454 0.18018848 -0.37518093 -0.096526936 0.054070443 -0.10197297 0.0008987457 -0.23237525
-0.026593342 -0.25797644 -0.05535358 0.27249834 -0.18991275 0.034709528 0.28939086 0.08847769
0.041782998 -0.10714293 -0.07347987 0.006799875 -0.2893953 0.09040503 0.09066716 0.17746681
0.1400306 0.023889046 0.27520078 0.07307721 0.13211875 -0.030315986 0.14861195 0.08118925
-0.09012056 -0.0415188 -0.013252784 0.09499164 -0.061373614 -0.0785987 -0.06658985 0.21925305
0.05428186 0.06756895 0.25502297 0.09721772 0.29854167 0.31641483 0.3028196 0.11017338
-0.06816807 -0.0980614 0.26334256 -0.056837957 0.11215338 -0.068969265 -0.17555311 0.2090191
-0.005083002 0.09677357 0.2077647 -0.31694943 -0.44654045 -0.34144756 0.017859826 -0.014661579
0.03971393 -0.3705376 0.03948807 0.14645334 -0.0755155 -0.531528 0.298347 0.118495
0.0076691355 -0.03017372 0.16441412 -0.045044363 -0.005094573 -0.089422315 -0.017030822 -0.029997863
0.4011783 0.06441748 -0.35104495 -0.0039282283 0.07294204 0.32259876 0.3461602 0.15138762
-0.07805496 0.06595282 0.18502022 -0.46899107 -0.4193484 -0.006217198 -0.06565393 0.2601213
0.072229356 -0.23165672 -0.32971117 0.10523191 -0.26368356 -0.062244274 0.04914529 -0.007453613
0.32308283 0.13966773 -0.06402293 0.07764319 -0.07586008 0.074691355 -0.31808892 -0.40221488
-0.09675853 -0.3863823 -0.18577616 0.2516242 -0.04729686 0.26886126 -0.08963782 -0.005225316
-0.18264125 -0.006250618 0.15549712 0.109625965 0.061570317 -0.2218678 -0.41300339 0.24264668
0.06118369 0.1730987 -0.055752598 0.033904586 -0.030605365 0.07310971 0.025821738 0.011792153
0.07324062 0.10855137 0.29704615 -0.09021863 0.03394671 0.027983628 0.070922896 0.3513329
-0.06446078 0.16196004 -0.059120797 -0.2347566 -0.12445276 -0.019298567 0.034204923 0.13098077
-0.009899581 -0.10317247 -0.2961937 -0.35856447 0.25071332 -0.08813122 -0.3310015 0.11669222
0.29451123 0.090232365 -0.122915104 -0.28408033

fc3.bias f4 [3]
00000000: fe23 033d 7b69 d6bd fe1f d3bd
0.032016747 -0.104693376 -0.103088364
