my_project/controllers/my_controller/results/after curriculum learning/last_weights.pt (torch, 15290 bytes, 6 tensors)

fc1.weight f4 [34, 17]
0	0xbca4ca65	-0.02011604
1	0xbea55daf	-0.32298037
2	0x3e2aa9ed	0.16666384
3	0xbcee927d	-0.029122585
4	0x3e17d041	0.14825536
5	0x3ef14f77	0.4713094
6	0x3ec1f1a1	0.3787966
7	0x3da6cbe8	0.08144361
8	0xbd07189f	-0.032982465
9	0x3e94556b	0.2897142
10	0xbe7018ba	-0.23446932
11	0xbca6573d	-0.02030527
12	0x3e12d939	0.14340676
13	0xbe926a78	-0.28596854
14	0xbd72bf37	-0.059264388
15	0xbe502583	-0.2032681
16	0xbe72b6c3	-0.2370253
17	0xbd80e3fd	-0.06293485
18	0x3d2df504	0.042469993
19	0xbe5490ee	-0.20758411
20	0x3e06c47e	0.13160893
21	0xbdf03cd1	-0.1173035
22	0x3e42aace	0.1901047
23	0xbde3ffcd	-0.111327745
24	0xbd6ae4bf	-0.057347056
25	0xbe49ff28	-0.1972624
26	0x3d03c0ff	0.032166477
27	0x3e00e836	0.12588581
28	0xbcc0f248	-0.023553029
29	0x3e0f3696	0.13985667
30	0xbdb1deed	-0.08685098
31	0xbe80eb79	-0.2517965
32	0x3e306817	0.17227207
33	0xbdbe8575	-0.09302799
34	0xbde63125	-0.11239842
35	0xbed17915	-0.4091269
36	0xbeb584e0	-0.35452938
37	0x3cff5071	0.031166287
38	0x3e907431	0.28213647
39	0x3ed25e8c	0.4108776
40	0x3e8943b6	0.26809472
41	0x3ed6f67b	0.41984925
42	0x3cf3bce7	0.029753162
43	0x3e8a1740	0.26970863
44	0x3cb64d11	0.022253545
45	0xbea629a4	-0.32453644
46	0x3c9d47ea	0.01919933
47	0xbe83b5ba	-0.25724584
48	0xbea9b3f8	-0.33145118
49	0xbf01d24c	-0.5071151
50	0xbf0c881f	-0.54895204
51	0xbcc25f90	-0.023727208
52	0xbe80d157	-0.25159714
53	0xbe215277	-0.15754114
54	0x3e15f241	0.14643194
55	0x3eb3ebc8	0.35140824
56	0xbe467742	-0.19381431
57	0x3ee753c8	0.45181108
58	0x3ea56389	0.32302502
59	0x3ec90187	0.39258978
60	0x3ee690ab	0.45032248
61	0xbd66b8ca	-0.056328572
62	0xbd427b4a	-0.04748086
63	0xb8e1d484	-0.0001076842
64	0xbdbecca6	-0.09316377
65	0xbba63ad5	-0.0050729313
66	0xbeafa806	-0.3430788
67	0xbe47e0cd	-0.19519348
68	0xbca45390	-0.020059377
69	0x3df4595b	0.11931106
70	0x3df6ab87	0.12044435
71	0x3f037a86	0.5135883
72	0x3d2c010d	0.04199319
73	0x3eabe232	0.3357101
74	0x3cec08d2	0.0288128
75	0xbe4f3ae3	-0.20237307
76	0xbe8ea7a3	-0.27862272
77	0xbf0a44ae	-0.54011047
78	0xbdcdf52a	-0.10056527
79	0x3dea375d	0.11436341
80	0x3d894b60	0.0670383
81	0x3cd12def	0.025534598
82	0x3d83d30d	0.06436739
83	0xbd5b52af	-0.05354565
84	0x3e74a153	0.23889665
85	0x3ea283dc	0.31741226
86	0x3d1e162c	0.038595363
87	0xbe473231	-0.1945274
88	0xbec235eb	-0.3793176
89	0xbde9fed3	-0.11425557
90	0xbf085b90	-0.53264713
91	0xbe21fcc5	-0.1581908
92	0xbe12bc54	-0.14329654
93	0x3e750df2	0.23931101
94	0x3d27f1fb	0.041002255
95	0x3d810e80	0.06301594
96	0x3e0bbba5	0.136458
97	0x3e42c103	0.1901894
98	0xbcb26c0a	-0.021780033
99	0x3e6b6f5b	0.22991697
100	0x3ee4f62b	0.4471906
101	0x3e378d72	0.17925051
102	0x3e7a853e	0.2446489
103	0xbeb1b187	-0.34705755
104	0xbe993521	-0.29923347
105	0xbe9c0c97	-0.30478355
106	0xbdd3f56d	-0.10349546
107	0xbe386e9b	-0.18010943
108	0xbccd6165	-0.025070855
109	0xbd87fe96	-0.06640355
110	0x3ebf4836	0.3735978
111	0x3ef90ca6	0.48642462
112	0xbc45ed0c	-0.012080442
113	0x3d536646	0.051611207
114	0x3c980503	0.018557077
115	0x3e3b17fb	0.18270867
116	0x3e58985a	0.21151868
117	0xbd9fbf21	-0.07800127
118	0xbdeb737f	-0.114966385
119	0xbedb91f9	-0.42884806
120	0xbd7fa5ca	-0.06241397
121	0x3f0d9a3b	0.5531346
122	0x3e9b1748	0.302912
123	0x3e939f5a	0.28832513
124	0xbe3734d5	-0.17891248
125	0xbe8bcc03	-0.27304086
126	0xba37f13a	-0.00070168416
127	0x3e1ca611	0.15297724
128	0xbe59a314	-0.21253616
129	0x3dc3e064	0.095642835
130	0x3db03706	0.08604245
131	0xbd185fa0	-0.03720057
132	0xbe2692d8	-0.16266954
133	0xbc1bec29	-0.009516754
134	0x3de10122	0.10986544
135	0x3dde358f	0.10850059
136	0x3ea1af99	0.31579283
137	0x3e7b0b0b	0.24515931
138	0x3e5783fe	0.21046445
139	0xbd42934d	-0.04750376
140	0xbe7355db	-0.2376322
141	0xbeafa974	-0.3430897
142	0xbd8910fb	-0.06692692
143	0xbee82ca7	-0.45346567
144	0xbe2201d6	-0.15821013
145	0xbd8a8965	-0.06764487
146	0x3e97c4c4	0.29642308
147	0x3d39a72e	0.04532545
148	0x3d968a8f	0.07350647
149	0x3edcf8c0	0.4315853
150	0x3e9db768	0.3080399
151	0x3e56973a	0.20956126
152	0x3f31e2c0	0.6948662
153	0xbdcab6b4	-0.09898129
154	0x3e5fc9dc	0.21854347
155	0xbce56329	-0.028001385
156	0x3d8e810c	0.069582075
157	0x3ea93a44	0.33052266
158	0x3e8e7af7	0.2782819
159	0xbceda82f	-0.02901086
160	0xbb14a929	-0.0022683835
161	0xbe00fa32	-0.12595442
162	0xbe0af059	-0.13568248
163	0xbe20153e	-0.15633103
164	0x3e7a4da7	0.24443685
165	0xbdd30bcd	-0.10304985
166	0x3da96d93	0.08272853
167	0xbe812765	-0.25225368
168	0x3cb51b8e	0.022107866
169	0x3e84a4af	0.25906894
170	0x3cbee772	0.023303721
171	0xbd5a71cd	-0.053331185
172	0xbebbcbb6	-0.36678857
173	0x3c46722e	0.0121121835
174	0x3e8d1c67	0.27560732
175	0xbc64376b	-0.013929228
176	0x3ea1fb3b	0.31636986
177	0x3e8e99ea	0.27851802
178	0x3f09dec1	0.5385552
179	0x3ee70517	0.4512107
180	0x3c16f34e	0.009213282
181	0xbd5941be	-0.053041212
182	0xbc7620af	-0.015022441
183	0x3d9d05d9	0.07667131
184	0xbe0fef77	-0.14056192
185	0x3da29059	0.079376884
186	0xbec820ad	-0.3908743
187	0x3daf757d	0.08567331
188	0xbef53608	-0.47892785
189	0x3cb4297f	0.021992443
190	0x3e9e0c87	0.30868933
191	0x3f20e29b	0.6284577
192	0x3ecc1f94	0.39867842
193	0x3ee5f999	0.4491699
194	0x3efb8573	0.4912525
195	0x3cc6166d	0.024180615
196	0x3ebb130e	0.36537975
197	0xbe706b15	-0.23478349
198	0xbe1f0f8e	-0.15533277
199	0x3db91858	0.09037846
200	0xbe73ef57	-0.2382177
201	0xbe423a9e	-0.18967673
202	0xbe673812	-0.22579983
203	0xbe3244c5	-0.17409046
204	0x3dedd212	0.11612333
205	0x3ea7e4d5	0.32791772
206	0x3e9ab7a6	0.30218238
207	0x3e5f443b	0.21803372
208	0xbe9073c1	-0.28213313
209	0x3dd98b66	0.10622291
210	0xbe578b1a	-0.21049157
211	0x3c56f9ad	0.013121051
212	0xbe6879c5	-0.22702701
213	0xbe8b60ee	-0.2722239
214	0xbd05d949	-0.032677922
215	0xbda692ec	-0.08133492
216	0xbd87ee18	-0.0663721
217	0xbe31bc62	-0.17357019
218	0x3e729b63	0.23692088
219	0x3da132b7	0.07871001
220	0x3e8f2fcd	0.27966157
221	0x3c6513f6	0.01398181
222	0x3e870b6c	0.26375902
223	0x3ed3c459	0.4136074
224	0x3f0056fa	0.50132716
225	0x3d856fb8	0.06515449
226	0x3e8cb227	0.2747967
227	0xbeab9e48	-0.33519197
228	0xbe2b38a8	-0.16720831
229	0xbf1b2a34	-0.6061127
230	0xbeb5cf20	-0.35509586
231	0x3e0a79cb	0.13523023
232	0x3ce8b1bf	0.028405068
233	0x3d754b0e	0.05988603
234	0x3e3e20f9	0.18567266
235	0x3d241490	0.040058672
236	0x3e0c0d3f	0.13676928
237	0x3ec12e4b	0.3773063
238	0x3dd7aefc	0.105314225
239	0xbdf04fde	-0.117339835
240	0xbeb3c635	-0.35112157
241	0xbdc1710b	-0.09445389
242	0xbeb95fff	-0.36206052
243	0xbed5df39	-0.41771868
244	0x3deb72f3	0.11496534
245	0xbe72d80f	-0.23715232
246	0x3dd207f9	0.10255427
247	0x3e502b9e	0.20329139
248	0x3eb816e6	0.3595497
249	0xbe1d6701	-0.15371324
250	0x3ea8778c	0.32903707
251	0xbdc6e922	-0.09712435
252	0x3bdcae4c	0.006734645
253	0x3e3dc616	0.18532595
254	0x3c310c92	0.01080622
255	0x3e99d38e	0.30044216

fc1.bias f4 [34]
0	0x3d954990	0.072894216
1	0xbe87eef4	-0.26549494
2	0x3e0c9165	0.13727339
3	0x3e0fb787	0.14034854
4	0x3d897fd2	0.06713833
5	0x3dfc04d6	0.1230561
6	0x3e521902	0.20517352
7	0x3dc4a575	0.09601871
8	0x3e305552	0.17220047
9	0xbdb3827e	-0.08765124
10	0x3e369f6e	0.17834255
11	0xba85d823	-0.0010211508
12	0x3d2ae6ac	0.041723892
13	0xbdb8c777	-0.0902242
14	0x3eaf339f	0.3421907
15	0x3cf28d46	0.02960838
16	0xbd6aca38	-0.057321757
17	0x3e56279e	0.2091355
18	0x3e92fb69	0.28707436
19	0xbc9f4d80	-0.019446135
20	0x3e9bf4f0	0.3046031
21	0x3e82abb3	0.2552162
22	0x3e912c26	0.28353995
23	0x3e8fff60	0.28124523
24	0x3d306e4d	0.04307394
25	0x3e12c508	0.14332974
26	0x3da22746	0.07917647
27	0x3d969705	0.073530234
28	0x3dabc578	0.083872736
29	0x3e6a7846	0.22897443
30	0x3e8d49e1	0.27595428
31	0xbe79eda6	-0.24407062
32	0xbd818988	-0.0632506
33	0x3e814acb	0.25252375

fc2.weight f4 [68, 34]
0	0xbe38cd08	-0.18046963
1	0x3db713c1	0.08939315
2	0x3edc1002	0.42980963
3	0x3dfb35f8	0.12266153
4	0x3de530c8	0.11190945
5	0xbe18fc27	-0.14939938
6	0x3dd63248	0.10458809
7	0x3e5a941b	0.2134556
8	0xbe6ed15a	-0.23322049
9	0x3e8a3dfb	0.27000412
10	0x3ce70fb6	0.028205734
11	0x3e9e9831	0.30975488
12	0xbe3d434b	-0.18482701
13	0x3e6b6ffc	0.22991937
14	0xbd634d34	-0.05549355
15	0x3e53aa1b	0.20670359
16	0x3e4e1655	0.20125706
17	0x3d8262fa	0.063665345
18	0xbe617d2a	-0.22020403
19	0xbda9863c	-0.08277556
20	0xbe260078	-0.16211116
21	0xbe91902a	-0.284303
22	0x3e4f853a	0.20265666
23	0x3da2b36d	0.07944379
24	0x3e7085c5	0.23488529
25	0x3e62ebad	0.22160216
26	0x3e3f527c	0.18683809
27	0xbd6c528b	-0.057695907
28	0xbe93312e	-0.2874846
29	0xbcbbbcee	-0.022917237
30	0xbdd28d7e	-0.10280894
31	0xbcc735ae	-0.024317589
32	0xbb36d14e	-0.0027895751
33	0x3db12b88	0.08650881
34	0xbee37ed1	-0.4443269
35	0x3e23b25a	0.15986004
36	0xbf0f963d	-0.5608862
37	0xbcb35ed9	-0.021895813
38	0xbe146503	-0.14491658
39	0x3ed3d1bc	0.41370952
40	0x3e13d4b0	0.14436603
41	0xbe4564a7	-0.19276677
42	0x3ebb3eaa	0.36571246
43	0xbe5c1570	-0.21492553
44	0xbd03cb9e	-0.032176606
45	0xbef490d8	-0.47766757
46	0x3df9a9d1	0.12190593
47	0xbe07418c	-0.13208598
48	0x3eadfec5	0.33983436
49	0xbe55f6b6	-0.20894894
50	0xbed2e684	-0.41191494
51	0xbd3de0b4	-0.04635687
52	0x3ee928f4	0.45539057
53	0xbe195ae1	-0.14976074
54	0x3eacf664	0.3378173
55	0x3eebff51	0.46093228
56	0xbda89d0c	-0.08233079
57	0x3e9d1d85	0.30686584
58	0xbe21efa6	-0.15814075
59	0x3df8de47	0.12151771
60	0xbe94e22e	-0.2907881
61	0xbc681635	-0.014165451
62	0x3e5431f6	0.20722184
63	0x3e43d114	0.19122726
64	0x3ec41f80	0.38305283
65	0xbd9fcb27	-0.0780242
66	0x3d8926b7	0.066968374
67	0xbd5a7df6	-0.053342782
68	0xbea61a76	-0.32442063
69	0x3c1b5389	0.009480366
70	0xbeaa97b9	-0.3331888
71	0xbe21e3c2	-0.15809539
72	0x3c8f670c	0.017505191
73	0x3e234cd7	0.15947281
74	0xbd38a6bb	-0.04508088
75	0x3d99b151	0.075045235
76	0x3f1324b7	0.574779
77	0x3c9ea145	0.019364009
78	0xbe25917a	-0.16168776
79	0xbea941be	-0.3305797
80	0x3e1271d7	0.14301239
81	0x3e29cf85	0.16583069
82	0x3e0dbee9	0.13842358
83	0x3d28434a	0.041079797
84	0xbe7c0c9b	-0.24614184
85	0xbe36d402	-0.17854312
86	0x3ee67273	0.45009193
87	0x3e2e7509	0.17036833
88	0x3eb34615	0.35014406
89	0x3f16eca6	0.58954847
90	0xbd88a3b3	-0.06671848
91	0x3e9622a4	0.29323304
92	0xbe7034de	-0.23457667
93	0xbdd4b415	-0.103859104
94	0xbe8f3077	-0.27966663
95	0xbdf13bac	-0.1177896
96	0x3e999173	0.2999378
97	0x3e6d6ade	0.23185298
98	0x3e584d01	0.21123125
99	0xbd24402e	-0.04010027
100	0x3d645c19	0.055751894
101	0xbc6bd32f	-0.014393612
102	0x3ecc893e	0.39948457
103	0x3de47afe	0.111562714
104	0x3ed5c063	0.41748342
105	0x3e972a43	0.2952443
106	0x3e690ae9	0.22758068
107	0xbe01f145	-0.12689693
108	0xbda91c28	-0.082573235
109	0x3d5d217c	0.05398701
110	0xbebadd08	-0.36496758
111	0x3e187d7b	0.14891617
112	0x3ce209da	0.027592588
113	0x3eb8b2de	0.36073965
114	0x3e0a9a14	0.13535339
115	0xbdc28c36	-0.09499399
116	0x3d69a892	0.057045527
117	0x3da8268e	0.08210479
118	0x3ea791ea	0.3272851
119	0x3e79e04d	0.2440197
120	0xbe9c100e	-0.30481
121	0x3eb6ce29	0.35704163
122	0xbe297b5f	-0.16550969
123	0xbeca1202	-0.39466864
124	0xbe25186d	-0.16122599
125	0x3de61633	0.11234703
126	0x3dd0c7ec	0.10194382
127	0xbc464efb	-0.012103791
128	0x3d23ac89	0.039959464
129	0xbe508901	-0.20364763
130	0xbee598bc	-0.4484309
131	0x3dd85f9a	0.105651096
132	0xbc849cd4	-0.016188063
133	0xbda99335	-0.08280031
134	0x3e27da78	0.16391933
135	0x3daae541	0.08344508
136	0xbedbcfc6	-0.42931956
137	0x3ca3f4e3	0.020014232
138	0xbf0cd633	-0.5501434
139	0xbe0be366	-0.13660964
140	0xbe82e6bc	-0.2556666
141	0x3ee3ea78	0.44514823
142	0x3e5ed928	0.21762526
143	0xbe7cd0ed	-0.24689074
144	0x3e9f57e0	0.3112173
145	0xbe6cd2e7	-0.23127328
146	0x3df20f22	0.118192926
147	0xbed2ae5d	-0.41148654
148	0x3c8c86d0	0.017154127
149	0xbd0f9957	-0.035058346
150	0x3e65d74b	0.22445409
151	0xbea9990a	-0.33124572
152	0xbeabe6e1	-0.33574584
153	0x3e251bc3	0.16123872
154	0x3eedafe9	0.4642327
155	0xbd89400f	-0.06701671
156	0x3e8fefac	0.28112543
157	0x3f0f3144	0.5593455
158	0x3cb673da	0.02227204
159	0x3e580b30	0.21098018
160	0xbece8cb3	-0.4034172
161	0x3df1d4c6	0.118081614
162	0xbe964e86	-0.29356784
163	0xbe03258a	-0.12807289
164	0x3ed2e1d9	0.41187933
165	0x3ca56f70	0.02019474
166	0x3e6b4849	0.22976793
167	0x3dfd5757	0.123701744
168	0x3e47519e	0.19464728
169	0xbdd34a8c	-0.10316953
170	0xbd6ff7ac	-0.058585808
171	0xbd9c20ea	-0.07623465
172	0xbdfef3b6	-0.12448828
173	0xbe24fc6b	-0.16111915
174	0xbd89a19f	-0.0672028
175	0x3de83042	0.113373294
176	0x3a106b00	0.00055091083
177	0xbd880b10	-0.06642735
178	0xbdb0379c	-0.08604357
179	0x3db9253e	0.090403065
180	0x3c91ff00	0.017821789
181	0x3c557b20	0.013029844
182	0xbd6b5abc	-0.057459578
183	0xbd3f281c	-0.04666911
184	0x3e04a465	0.12953337
185	0x3dc9b936	0.09849779
186	0xbdc6c8fd	-0.09706304
187	0x3d41c390	0.047305644
188	0xbdff247d	-0.124581315
189	0x3df52b1e	0.119711146
190	0xbdf26532	-0.11835708
191	0xbdd0e4b6	-0.10199873
192	0xbd06b1e0	-0.03288448
193	0xbdd91a96	-0.10600774
194	0xbc1a6fa0	-0.009426028
195	0xbdc6c722	-0.0970595
196	0x3d578dc0	0.052625418
197	0xbd08c408	-0.033390075
198	0xbcbb3f18	-0.022857234
199	0xbe1f65c8	-0.1556617
200	0xbdb38976	-0.08766453
201	0xbd83fb10	-0.06444371
202	0x3d774560	0.060368896
203	0x3e2cd5b5	0.16878398
204	0x3d57c7b2	0.05268068
205	0x3c55d6b0	0.013051674
206	0x3e11f306	0.14252862
207	0xbc3c84c1	-0.01150626
208	0xbe2be9d6	-0.1678842
209	0x3d05fda7	0.032712605
210	0x3e00dc67	0.12584077
211	0xbe41902d	-0.18902655
212	0x3c3dda04	0.0115876235
213	0xbe44ce81	-0.192194
214	0xbcb9789d	-0.02264052
215	0x3de699c5	0.11259798
216	0x3d47bdab	0.048764866
217	0xbe3cebd8	-0.18449342
218	0xbe33d929	-0.17563309
219	0xbdc23017	-0.09481829
220	0x3d27ab94	0.040935114
221	0x3c3f5d23	0.01167992
222	0xbdcdd5d8	-0.10050553
223	0x3d88f00e	0.06686412
224	0xbdf19bd0	-0.11797297
225	0x3d8a745a	0.067604735
226	0xbe0a0fa3	-0.13482527
227	0xbe108326	-0.14112529
228	0x3e0b3316	0.13593706
229	0xbdf134d9	-0.11777658
230	0x3ded511b	0.11587735
231	0xbe0fe432	-0.14051893
232	0xbb0878b3	-0.0020823895
233	0x3e02fe7a	0.12792388
234	0xbe2a96a7	-0.16659032
235	0xbdc10ddf	-0.09426474
236	0xbd974b1c	-0.07387373
237	0xbdcae27e	-0.09906481
238	0xbd03b610	-0.03215605
239	0xbda156ea	-0.07877906
240	0xbe2dbb94	-0.16966087
241	0xbe2cd54f	-0.16878246
242	0xbe1ff782	-0.1562176
243	0xbd8c334a	-0.0684572
244	0xbdc82a28	-0.09773666
245	0x3d9bd86a	0.07609637
246	0x3e276a95	0.16349252
247	0xbd46d088	-0.048538715
248	0x3d90cb8a	0.07070072
249	0x3e2ed64f	0.1707394
250	0xbe0694d5	-0.13142712
251	0xbc3b7e40	-0.011443675
252	0x3dd2169a	0.10258217
253	0xbd0398dc	-0.0321282
254	0xbde6242f	-0.1123737
255	0xbde5ff0b	-0.11230286

fc2.bias f4 [68]
0	0xbd6f3a1c	-0.058405027
1	0x3dea4d0d	0.114404775
2	0x3d3609ba	0.04444287
3	0xbd4c2bba	-0.04984639
4	0x3e150453	0.14552431
5	0xbd6853dc	-0.0567206
6	0xbe19787d	-0.14987369
7	0xbe1a4552	-0.15065506
8	0xbd4b61f6	-0.04965397
9	0x3e15e821	0.14639331
10	0xbdc82269	-0.09772188
11	0x3ca29a5c	0.019848995
12	0xbe2950f5	-0.16534789
13	0x3e3de79f	0.18545388
14	0x3dce5e4a	0.10076578
15	0xbc00420b	-0.007828246
16	0xbd87e038	-0.06634563
17	0x3dea6193	0.11444392
18	0xbcf7f11b	-0.030266335
19	0x3aa7b0b8	0.0012793755
20	0xbcbb1849	-0.022838729
21	0x3d1760c8	0.036957532
22	0x3d024063	0.031799685
23	0xbd8a5332	-0.067541495
24	0x3dd65681	0.10465718
25	0xbdf49c8c	-0.119439214
26	0x3e307eb1	0.17235829
27	0x3e443472	0.19160631
28	0xbe0398c4	-0.12851244
29	0x3e36de0c	0.17858142
30	0x3dfd36a1	0.12363935
31	0x3e8dddc5	0.2770826
32	0x3d6fe529	0.058568154
33	0x3d89cb2d	0.06728206
34	0xbbed3d5c	-0.0072399806
35	0xbe1a37e9	-0.1506039
36	0xbe0836b5	-0.13302119
37	0x3d06c042	0.032898195
38	0xbe2726b7	-0.16323362
39	0xbb0af189	-0.0021201095
40	0xbe206b23	-0.1566587
41	0x3d7ae317	0.061251726
42	0x3dab51fe	0.08365248
43	0xbd7248f2	-0.059151597
44	0xbdb2343c	-0.08701369
45	0xbdc6bcf8	-0.09704012
46	0xbe3a7631	-0.18209149
47	0x3ad44fd6	0.0016198109
48	0xbe0c9283	-0.13727765
49	0xbe4c228d	-0.19935055
50	0xbe28529b	-0.16437761
51	0x3e330868	0.17483675
52	0xbd70734a	-0.0587037
53	0xbe27e5b9	-0.16396226
54	0x3daea002	0.08526613
55	0xbdbe9466	-0.093056485
56	0xbe31cd3c	-0.17363447
57	0x3e43fa79	0.19138516
58	0x3e3e5383	0.18586545
59	0x3e42c09c	0.19018787
60	0x3bad6fae	0.0052928543
61	0xbdd0a695	-0.10188023
62	0x3d46a538	0.04849741
63	0x3de9a58c	0.11408529
64	0x3e5ad20c	0.21369189
65	0x3c5ef86d	0.013609034
66	0x3e3185cf	0.173362
67	0x3dae1bac	0.08501372

fc3.weight f4 [3, 68]
0	0xbe3a1543	-0.18172173
1	0x3ebd3dd9	0.3696125
2	0x3eaf4d17	0.34238502
3	0xbea6e5d0	-0.32597208
4	0x3eb0567d	0.34440985
5	0xbde97d22	-0.1140082
6	0x3d6297d9	0.055320594
7	0x3dae19c0	0.08501005
8	0xbeec6cbb	-0.46176705
9	0xbe4c3f51	-0.19946028
10	0xbde67a9c	-0.11253855
11	0xbda170d9	-0.07882852
12	0xbd356cde	-0.044293277
13	0xbe8d545d	-0.27603427
14	0x3d968a12	0.073505536
15	0x3ee8cfcb	0.45471033
16	0xbe7d2736	-0.24721989
17	0x3ccf0210	0.025269538
18	0xbe96e093	-0.29468212
19	0xbec5f172	-0.3866077
20	0xbd9e8e88	-0.077420294
21	0xbedbb460	-0.42911053
22	0xbc9710e8	-0.018440679
23	0xbd3665df	-0.044530746
24	0x3eb1f6c6	0.34758586
25	0x3d0a5902	0.03377629
26	0x3e3c7053	0.18402223
27	0xbeaec83b	-0.3413714
28	0xbc103898	-0.0088025555
29	0x3e8e24ab	0.2776235
30	0x3e2c5fff	0.16833495
31	0x3cebb084	0.028770693
32	0x3e83ddba	0.257551
33	0x3eb3c14f	0.3510842
34	0x3d440346	0.047854684
35	0xbdde57aa	-0.10856564
36	0xbddc479e	-0.107558474
37	0x3eab19ca	0.33418113
38	0xbdbcdc17	-0.09221666
39	0xbea3f708	-0.32024407
40	0x3c106a80	0.008814454
41	0x3e4de0ac	0.20105237
42	0xbeeb3e1f	-0.45945832
43	0xbdeeab36	-0.1165375
44	0x3d5d78f8	0.054070443
45	0xbdd0d734	-0.10197297
46	0xbe279f5a	-0.16369382
47	0xbed1fd7f	-0.41013715
48	0xbcd9da48	-0.026593342
49	0xbe84157d	-0.25797644
50	0xbd62ba6f	-0.05535358
51	0x3eb92488	0.36160684
52	0xbe82926d	-0.2550234
53	0x3d0e2b94	0.034709528
54	0x3ea8e09c	0.32983863
55	0x3db533cb	0.08847769
56	0x3d2b24a6	0.041782998
57	0xbe5ed7f0	-0.21762061
58	0xbd8f7f2c	-0.07006678
59	0x3d8e2324	0.06940296
60	0xbee935a0	-0.45548725
61	0x3db92646	0.09040503
62	0x3e26e5ed	0.16298647
63	0x3e3fb107	0.18719874
64	0x3e01f337	0.12690435
65	0x3cc3b2f6	0.023889046
66	0x3eb1e073	0.34741554
67	0x3df29a29	0.1184581
68	0x3df9979f	0.121871226
69	0xbcab3744	-0.020900376
70	0x3e4966d7	0.19668137
71	0x3d7ea13f	0.062165495
72	0xbdb6a9ea	-0.08919127
73	0xbd2a0f9e	-0.0415188
74	0xbc590665	-0.0132461535
75	0x3dc28afa	0.09499164
76	0xbd715a1a	-0.05892382
77	0xbdcb685d	-0.09932015
78	0xbd886025	-0.06658963
79	0x3e819a6a	0.2531312
80	0x3d5e56a8	0.05428186
81	0x3d68467e	0.05670785
82	0x3e9d23cb	0.3069137
83	0x3e062df6	0.1310347
84	0x3eb37d5f	0.35056588
85	0x3eba1929	0.3634732
86	0x3ee6cb13	0.45076808
87	0x3da19094	0.07888904
88	0xbd8b9bb3	-0.06816807
89	0xbddcc52d	-0.10779796
90	0x3eabdab9	0.3356531
91	0xbd68ceeb	-0.056837957
92	0x3e195f4a	0.14977756
93	0xbd8d3fc2	-0.068969265
94	0xbe9460c8	-0.28980088
95	0x3e6cbecf	0.23119663
96	0xbba68f50	-0.005083002
97	0x3e0d0590	0.13771653
98	0x3e85d943	0.2614232
99	0xbeda955f	-0.42692086
100	0xbf10f535	-0.56624156
101	0xbeec1fcf	-0.46118018
102	0x3c924ec5	0.017859826
103	0xbc70371f	-0.014661579
104	0x3d22ab13	0.03971393
105	0xbeefaf3e	-0.46813387
106	0x3d21be3e	0.03948807
107	0x3e19d9d1	0.15024497
108	0xbd9aa7df	-0.0755155
109	0xbf303d55	-0.68843585
110	0x3e97fabf	0.29683492
111	0x3e1e9d69	0.15489735
112	0x3bfb4d5f	0.0076691355
113	0xbcf72ee1	-0.03017372
114	0x3ea06b85	0.3133203
115	0xbd6249c9	-0.05524615
116	0xbba6f060	-0.005094573
117	0xbdb7230c	-0.089422315
118	0xbc8b8439	-0.017030822
119	0xbc9d056f	-0.01916763
120	0x3ef2d05e	0.47424597
121	0x3d83ed50	0.06441748
122	0xbee745fa	-0.45170575
123	0xbb80b85e	-0.0039282283
124	0x3d9562a3	0.07294204
125	0x3edff654	0.4374262
126	0x3ece882a	0.4033826
127	0x3e4f5247	0.2024623
128	0xbdb1a69b	-0.086743556
129	0x3d871246	0.06595282
130	0x3e72be0d	0.23705311
131	0xbf18e52d	-0.59724694
132	0xbf0d8552	-0.55281556
133	0xbbcbb9a3	-0.006217198
134	0xbd9efd2a	-0.07763131
135	0x3ea30248	0.31837678
136	0x3e4dd852	0.20102051
137	0xbeb77167	-0.35828707
138	0xbf13e72b	-0.5777461
139	0x3eae75f6	0.34074372
140	0xbec7ea8e	-0.3904614
141	0xbd7ef3da	-0.062244274
142	0x3d494c0d	0.049144793
143	0xbbf43d70	-0.007453613
144	0x3f00b147	0.50270504
145	0x3e92540e	0.28579754
146	0x3c05a184	0.008156184
147	0x3d4c7cef	0.049923833
148	0xbd9b5c88	-0.07586008
149	0x3e2c39de	0.1681895
150	0xbf0b930e	-0.5452126
151	0xbf2a1245	-0.6643413
152	0xbde1f681	-0.11033345
153	0xbf1b58b1	-0.6068221
154	0xbe2bd405	-0.16780098
155	0x3eb90d4f	0.36142966
156	0xbd41ba5a	-0.04729686
157	0x3ee371f3	0.44422874
158	0xbe0494fc	-0.12947458
159	0xbbab3921	-0.005225316
160	0xbed4325f	-0.4144468
161	0xbbccd1fc	-0.006250618
162	0x3e47123b	0.19440548
163	0x3e5d6fdc	0.21624702
164	0x3d7c3128	0.061570317
165	0xbefb1e62	-0.49046618
166	0xbf2c7a6f	-0.6737432
167	0x3ea12b87	0.3147852
168	0x3db50c75	0.088402666
169	0x3e57e34f	0.21082805
170	0xbd645cd6	-0.055752598
171	0x3d0adf89	0.033904586
172	0xbcfab81a	-0.030605365
173	0x3dc762eb	0.09735664
174	0x3cd3881c	0.025821738
175	0x3d9357a5	0.07194451
176	0x3d95ff2e	0.07324062
177	0x3e086cb4	0.13322717
178	0x3ec93e80	0.39305496
179	0xbdea35fb	-0.11436077
180	0x3d0b0bb5	0.03394671
181	0x3ce53dec	0.027983628
182	0x3daccf0a	0.08437927
183	0x3f08d253	0.5344593
184	0xbd840403	-0.06446078
185	0x3e25d8da	0.16196004
186	0xbd7228a6	-0.059120797
187	0xbec116bb	-0.37712654
188	0xbe09dee9	-0.1346394
189	0xbc9e1807	-0.019298567
190	0x3d0c4b12	0.03425128
191	0x3e061fd3	0.13098077
192	0xbc2231da	-0.009899581
193	0xbdf599ef	-0.11992251
194	0xbee039c7	-0.4379408
195	0xbf1e671b	-0.61876076
196	0x3ed90ac3	0.42391023
197	0xbdb47e24	-0.08813122
198	0xbf1c4cb2	-0.6105453
199	0x3e1f3f9b	0.15551607
200	0x3eb5869f	0.3545427
201	0x3db8cbbf	0.090232365
202	0xbe4edf00	-0.20202255
203	0xbf07a2b2	-0.5298263

fc3.bias f4 [3]
0	0x3c56bfda	0.013107264
1	0xbde8e0ab	-0.11370977
2	0xbd955e7c	-0.07293412
