my_project/controllers/my_controller/results/simple reinforce/last_weights.pt (torch, 15290 bytes, 6 tensors)

fc1.weight f4 [34, 17]
000000 ca e0 3d 3e 4a 23 4e 3e 7c bb 68 bd a0 24 64 3e
       0.18542781 0.20130649 -0.056819424 0.22279596
000010 c4 a9 59 bd d0 76 48 3d c3 d3 f1 bd fe da 11 3e
       -0.053140417 0.048941433 -0.118079685 0.14243695
000020 d8 ef 5a 3e 88 33 36 be da de 57 3e d0 ed 39 3d
       0.21380556 -0.17793095 0.21081105 0.04539281
000030 ec 7c 37 3e 50 8a 06 3d 54 82 ef 3d 48 43 0c bd
       0.17918748 0.03284675 0.1169478 -0.034243852
000040 5a 74 3f 3e 50 d6 12 3d ac e2 e7 bd f8 38 7d 3d
       0.18696728 0.035848916 -0.11322531 0.061821908
000050 96 da e4 bd f8 00 e9 bc 7e be c9 bd a2 c0 24 3e
       -0.111745045 -0.028442845 -0.098507866 0.16089109
000060 92 0b 44 be 64 fd e4 bd 5a 42 8c bd 75 54 15 be
       -0.19145039 -0.11181143 -0.06848593 -0.14582999
000070 80 86 bb 3c e8 4b 75 be 02 4b 60 3e 8f f8 52 be
       0.022891283 -0.23954737 0.21903613 -0.2060263
000080 ee bc 3f 3e 38 53 25 3d f2 48 a1 bd cc 78 19 3e
       0.18724415 0.040362567 -0.07875241 0.14987487
000090 80 d3 1a 3d b6 a9 48 3e b0 33 d9 3c 62 a6 9c bd
       0.03779936 0.1959599 0.026513904 -0.076489225
0000a0 6c 75 85 3d c6 b2 86 bd a0 0b d1 3d f8 bc 5d 3e
       0.06516537 -0.06577067 0.102072954 0.21654117
0000b0 98 90 0f 3e 36 26 d9 bd 10 5e 0f 3e 00 c0 31 3d
       0.14020002 -0.10602991 0.14000726 0.043395996
0000c0 8c 3f fc 3d e1 5f 17 be a5 d9 75 be 08 e9 bf bd
       0.12316808 -0.14782669 -0.24008806 -0.09370619
0000d0 be 7e 3e be 40 c9 4b 3e a4 11 8f 3d c8 be cd 3d
       -0.18603036 0.1990099 0.069857866 0.10046154
0000e0 4c 17 9d 3d c0 40 8a bb a8 5d 42 3e ee 75 30 be
       0.07670459 -0.0042191446 0.1898104 -0.17232487
0000f0 00 33 7a 3c 66 83 29 be 94 29 99 3d 24 0f ab bd
       0.015270948 -0.16554031 0.074786335 -0.08352497
000100 70 33 98 3d c8 f8 4e bd 1e fc 4d 3e 8c 33 13 be
       0.07431686 -0.050530225 0.20115706 -0.14375132
000110 8a 1e 14 be d4 20 14 be e8 61 5f 3e b8 87 a5 3d
       -0.14464775 -0.14465648 0.21814692 0.08082527
000120 30 fb 6e 3e 74 f6 4c be bf 56 76 be 1c 4e 42 be
       0.23338008 -0.2001589 -0.24056529 -0.18975109
000130 12 11 27 be 4c 30 c9 3d 64 dc b1 3d 8e 5d 4e 3e
       -0.16315106 0.09823665 0.08684614 0.20152876
000140 f1 41 00 be bb 4e 29 be c4 c5 03 3e 0a c6 c8 bd
       -0.12525155 -0.1653394 0.1286841 -0.09803398
000150 c4 bb 16 3e 98 bd 6b bd 42 12 0e 3e 0c f7 40 be
       0.14720064 -0.057553858 0.13874152 -0.18844241
000160 84 aa fa bd a4 6f 97 3d 88 04 52 3d 5c 48 7d bd
       -0.122395545 0.07394341 0.051273853 -0.061836585
000170 a8 09 14 3e c4 d5 28 3e fc 19 34 be f2 96 04 be
       0.14456809 0.16487795 -0.17588037 -0.12948206
000180 1c 69 63 3e 6a 9b a7 bd c8 17 b0 bd f3 4e 70 be
       0.22208065 -0.0818394 -0.08598286 -0.23467617
000190 f2 39 0e be 50 29 78 3d 1c 20 03 bd 4b 47 34 be
       -0.13889292 0.060586274 -0.032013044 -0.17605321
0001a0 80 6b ba 3b d0 a5 29 be 6e b4 52 be b9 c2 08 be
       0.0056890845 -0.16567159 -0.20576641 -0.13355531
0001b0 56 5d 59 be 56 23 1e be 64 42 78 3e 20 a2 3b 3d
       -0.21227011 -0.15443167 0.24244076 0.04580891
0001c0 20 11 99 3d 60 a3 67 be 31 1d 23 be 74 55 a5 bd
       0.074739695 -0.22620916 -0.15929104 -0.080729395
0001d0 d8 57 1b 3d be 88 5a be 2c 05 d6 bd e8 ae 14 be
       0.03792557 -0.21341226 -0.10450205 -0.14519846
0001e0 00 32 30 3a 18 d4 b8 bd 30 ae 89 bc 32 4b 28 be
       0.0006721318 -0.09024829 -0.016806692 -0.16434935
0001f0 7f 78 2a be 41 e4 10 be 08 06 aa bd e5 05 44 be
       -0.16647528 -0.14149572 -0.083019316 -0.19142874
000200 4a 3d 50 3e c8 28 45 bd 62 af 55 3e 50 c4 9a 3d
       0.2033588 -0.048134595 0.20867684 0.07556975
000210 b9 4e 52 be 16 df 2b 3e 02 ab 88 bd 2c 67 be bd
       -0.20537843 0.1678432 -0.06673242 -0.09297022
000220 44 27 4e be ff e7 76 be 68 1d 8e 3d 00 02 59 bd
       -0.20132166 -0.24111937 0.069392025 -0.052980423
000230 c0 61 c1 3d 2c d1 4b be 18 63 38 3e 98 4e 36 be
       0.094424725 -0.19904011 0.18006551 -0.17803419
000240 c4 89 2b bd 20 7f 4f 3d e8 36 00 3e 32 80 48 3e
       -0.04187943 0.050658345 0.12520945 0.19580153
000250 1c 3e 62 3e 67 ed 44 be 48 03 7a 3d 2e a6 d5 bd
       0.22094005 -0.19231187 0.061038285 -0.10432087
000260 90 ba d9 bc 72 e4 39 be b8 37 62 3e 07 48 36 be
       -0.026578218 -0.18153551 0.22091568 -0.17800914
000270 04 bc 04 3e 88 90 ae 3d ec 68 a1 3d e2 45 06 be
       0.12962347 0.08523661 0.078813404 -0.13112596
000280 76 be 61 3e 48 4e 5a 3d b0 96 ff 3c 86 dd 5a be
       0.22045311 0.05329731 0.031199783 -0.21373567
000290 b0 83 d0 3d cc 08 15 bd 68 8e e3 bd 30 53 55 3e
       0.101813674 -0.036385342 -0.11111146 0.20832515
0002a0 b0 7b 5d 3d e8 68 09 be e0 67 fb bd 60 c4 3d bc
       0.054073036 -0.13418925 -0.12275672 -0.011582464
0002b0 32 ac 0a 3e 98 da 7d bd ba b4 0d be 86 18 aa bd
       0.1354225 -0.061976045 -0.13838473 -0.08305459
0002c0 77 8a 39 be dc 24 b1 3d e8 3c 40 3e 14 d0 69 be
       -0.18119226 0.086496085 0.18773234 -0.22833282
0002d0 50 b9 66 3d 86 4c 00 3e 28 23 34 3d 48 e4 b0 bd
       0.05632907 0.12529191 0.04397884 -0.08637291
0002e0 b2 a0 01 3e bc 83 02 3e 08 bc b9 3d f4 90 2e bd
       0.12658957 0.12745565 0.09069067 -0.042618707
0002f0 bc 87 83 bd 20 8e d4 3c 24 7e 2f bd 60 05 94 bd
       -0.06422374 0.025946677 -0.042844906 -0.07227588
000300 4c c0 1e 3e fc 6f 55 3e 70 b1 c4 bc c8 6c 5e bd
       0.15503043 0.208435 -0.02401039 -0.05430296
000310 00 f1 67 3b 50 43 6d bc b0 d4 6e 3d 18 32 8b 3d
       0.003539145 -0.014481381 0.058308303 0.06796664
000320 4b 92 61 be 4a 4e b7 bd f8 25 51 3e 3c 7f c1 3d
       -0.22028463 -0.08950479 0.2042464 0.09448096
000330 70 a4 45 bc 4d bc 15 be 1d f2 17 be 31 78 5e be
       -0.012063131 -0.14622612 -0.14838453 -0.21725537
000340 e6 e8 a1 bd f8 bd a7 3d 82 5b 1e 3e c0 54 e5 3d
       -0.0790575 0.081905305 0.15464595 0.111978054
000350 82 88 5b be 2e 5a 15 be 78 c7 1c bd 5e 3f 70 3e
       -0.21438792 -0.14585182 -0.038276166 0.23461673
000360 e0 b4 0f 3d 56 a2 80 bd 6c 7f cd 3d 56 30 bd bd
       0.035084605 -0.06280963 0.100340694 -0.09237735
000370 09 c0 20 be b0 45 35 3e 34 db e1 bd 1c 26 47 bd
       -0.15698256 0.17702365 -0.11028138 -0.04862033
000380 eb 10 77 be ba 37 26 3e da 29 3c 3e b0 06 b5 3d
       -0.24127547 0.16232195 0.1837534 0.08839166
000390 2d 2c 2d be e8 1c 75 be bc b5 49 be 12 33 39 3e
       -0.16911383 -0.23936808 -0.19698232 0.18085888
0003a0 88 79 ee 3d 3a fe 50 3e 42 1b 02 3e a8 6d 7b 3d
       0.11644274 0.2040948 0.1270571 0.061383873
0003b0 40 a7 1b bb 69 e0 3c be f0 c8 54 be c6 4c 68 be
       -0.0023750812 -0.1844498 -0.20779777 -0.22685537
0003c0 dc 55 cb 3d c3 de f3 bd f4 ed 47 bd 32 ee 0e be
       0.09928486 -0.11907723 -0.048810914 -0.13958052
0003d0 8c 06 35 bd 4d cd 2e be af 47 22 be dc c3 a4 3d
       -0.044195697 -0.17070504 -0.15847658 0.0804517
0003e0 0e 9f 93 bd 38 52 19 3e 92 59 9f bd a9 2f 36 be
       -0.07208072 0.1497277 -0.07780756 -0.17791618
0003f0 6c 47 2f bd c3 c7 f0 bd 14 f7 97 bd 2d 6f 6c be
       -0.042792723 -0.117568515 -0.07420173 -0.23089285

fc1.bias f4 [34]
000000 4f 10 f5 bd b0 dc ea bd 0e 05 19 3e b6 64 58 be
       -0.11966001 -0.11467874 0.14943334 -0.21132168
000010 20 f1 f2 3c c6 64 5b 3e f0 5b 2a 3d f8 13 87 3d
       0.029655993 0.21425161 0.041591585 0.065956056
000020 ff a3 10 be 40 4b 5b bb e0 7d 5a 3c 20 d2 73 3d
       -0.1412506 -0.00334616 0.013335675 0.059526563
000030 f0 fe c0 3d ca cd 57 3e 04 92 3d be e0 39 ee 3b
       0.094236255 0.21074596 -0.18512732 0.007270083
000040 02 2d f8 bd 42 77 44 be 38 1a 9f bc ce 9c 5a be
       -0.121179596 -0.19186118 -0.019421682 -0.21348879
000050 ea 53 2d 3e 60 1b e6 3c 8e da 05 be 30 c9 01 3e
       0.16926542 0.028089225 -0.13071653 0.12674403
000060 30 0d 6b be d0 20 c0 bd b8 89 41 bd 7e 0a 53 be
       -0.2295425 -0.093812585 -0.04725048 -0.20609471
000070 4f ed 1d be 48 25 22 bd b2 71 3c 3e 94 d3 6f 3e
       -0.15422557 -0.039586335 0.18402746 0.23420554
000080 18 05 1e 3e b3 4c 14 be
       0.1543163 -0.14482383

fc2.weight f4 [68, 34]
000000 11 c8 e5 bd f3 41 19 3e c4 78 78 3d 40 4d 95 3b
       -0.112198 0.14966564 0.060662046 0.004556328
000010 58 21 be 3c 0e 24 0d be 62 8a 6a bd bd 0c 29 3e
       0.023209259 -0.13783285 -0.05726088 0.16508766
000020 b4 3f 2d bd e0 f3 0c bc 77 d1 11 be e5 7a c4 bd
       -0.04229708 -0.008603066 -0.14240061 -0.09593753
000030 c0 80 65 bb 55 2b da bd 20 39 ae bc 98 ef 8e 3d
       -0.0035019368 -0.10652796 -0.021267474 0.06979293
000040 3c c8 2b be 78 a3 50 3d 4c 3c e8 bd f0 6a ab bd
       -0.16775602 0.050937146 -0.11339626 -0.08370006
000050 1c d7 86 3d 7b a2 0b 3e e6 fc 3f bd 2c 34 90 bd
       0.065839976 0.136362 -0.046872042 -0.07041201
000060 06 cc 1e be 2d 1d b5 bd 4b c6 19 be a0 c5 20 bd
       -0.15507516 -0.088434555 -0.15017049 -0.03925097
000070 24 57 0f 3d 6d 87 24 be d9 54 19 3e a2 5b dc 3d
       0.034995213 -0.16067286 0.14973773 0.10759665
000080 c9 ea 2b be 34 c2 a7 bd 40 1c 65 3d a8 53 10 bd
       -0.16788782 -0.08191338 0.055935144 -0.03523603
000090 58 1a 99 bc e0 95 9e bd 9b 0e 0d 3e 21 56 c4 bd
       -0.01868932 -0.0774343 0.13775103 -0.0958674
0000a0 11 a2 11 3e 00 4c 35 3c 9c 35 0d 3d a3 00 09 3e
       0.1422198 0.011065483 0.034474954 0.13379149
0000b0 60 7b e7 bc 4e f8 c7 bd 18 39 e3 bc cb 6e 0e 3e
       -0.028257072 -0.09764157 -0.027737185 0.13909452
0000c0 c4 4d 02 be bc 71 1f 3d ac 97 2c be 72 26 b8 3d
       -0.12724978 0.038926825 -0.16854733 0.08991708
0000d0 90 c4 81 3d 00 3b ee 3b c0 be 96 3d 00 44 4a 39
       0.063363194 0.007270217 0.073606014 0.00019289553
0000e0 86 5a c2 3d 24 05 0b be c0 50 ce bc 74 cf 9b 3d
       0.09489922 -0.1357618 -0.025184989 0.07607928
0000f0 43 e1 2e 3e c2 e9 b2 3d a2 67 ff bd 89 10 07 3e
       0.17078118 0.08735992 -0.12470938 0.13189901
000100 a0 a5 1c bd 28 fc 15 bd 26 9e 1f be 68 27 dd bc
       -0.03824389 -0.036617428 -0.15587673 -0.02699633
000110 0a 6f f8 3d 88 e8 c3 3c 25 93 cc bd a0 39 58 3d
       0.12130554 0.02391459 -0.09989003 0.05278933
000120 40 3d 61 bd c5 55 20 3e eb 6c 18 be ac e3 5d bd
       -0.054990053 0.15657718 -0.14885299 -0.054172203
000130 9a 91 29 be 1a 53 8a bd c4 72 5d 3d 95 0c 29 3e
       -0.16559449 -0.067541316 0.054064527 0.16508706
000140 58 f3 eb 3c 4b 2a 2c 3e fc 6f 09 3d f2 d8 ca 3d
       0.028802559 0.16813008 0.033554062 0.0990466
000150 97 c8 0c 3e e1 cc 12 3e 5d 97 c4 bd 51 75 21 3e
       0.13748394 0.14335968 -0.09599183 0.15767409
000160 32 c3 d4 3d 34 3a a4 bd 93 9b a7 bd c9 4b 13 be
       0.10388793 -0.08018914 -0.0818397 -0.14384378
000170 d8 69 30 3d 20 58 0e be 2a 5e 94 3d ac d5 5d 3d
       0.04306969 -0.13900805 0.07244523 0.05415885
000180 06 93 18 be a4 6b 3f 3d 70 86 64 bc 9c 72 a0 3d
       -0.14899835 0.046733513 -0.013948068 0.0783436
000190 16 88 c9 3d 1a 96 2e be 4f 0e 21 3e 19 47 13 3e
       0.098404095 -0.17049447 0.15728115 0.1438259
0001a0 92 bf 8b 3d 3e 81 20 be c2 ee 7a bd 20 94 4b bd
       0.068236485 -0.15674302 -0.061262853 -0.04970181
0001b0 c4 87 34 bd f2 10 c6 3d a4 64 7f 3d 41 1e 0b 3e
       -0.04407479 0.09671201 0.062351838 0.1358576
0001c0 1e 8b 83 bd b4 67 6c 3d 64 ee 79 3d 0e 37 12 be
       -0.06423019 0.057716087 0.061018363 -0.14278814
0001d0 7f 59 2a be ba 3f b6 bd de 6e f0 3d 82 55 25 be
       -0.16635703 -0.088988736 0.11739896 -0.161459
0001e0 60 dc 18 be 3e c2 c4 3d 8e 7f bd 3d 93 6c 10 3e
       -0.14927816 0.09607361 0.09252845 0.14103918
0001f0 06 94 04 be 41 88 00 be 02 2d b4 3d 3f b8 18 3e
       -0.12947091 -0.12551977 0.08797647 0.14914034
000200 6e 27 d2 3d 48 15 dc 3c 30 83 67 3d 33 ae 26 3e
       0.10261427 0.026865616 0.056521595 0.16277389
000210 52 9d e2 bd 50 76 9f bd 52 ac f5 3d 2a 53 f0 bd
       -0.11065163 -0.07786238 0.11995758 -0.11734612
000220 12 ac c1 bd 73 32 00 3e 1c a4 5d 3d 74 f1 62 3d
       -0.09456648 0.12519245 0.054111585 0.05540605
000230 76 dd 94 bd c0 1b 1b bb 6b ba 20 3e 94 d0 d2 bd
       -0.07268803 -0.0023667663 0.15696113 -0.10293689
000240 80 bb b0 3a 5e 0b a7 3d 24 79 f2 bd 83 8d 2a 3e
       0.0013483614 0.08156465 -0.11839512 0.16655545
000250 4e 7a af bd 80 af 28 bd 78 10 3e bd ae e1 e4 bd
       -0.0856825 -0.041182995 -0.046402425 -0.111758575
000260 08 53 2c be 86 0a c6 3d fc 9f 3a 3d 11 7b 24 be
       -0.16828549 0.09669976 0.04556273 -0.16062571
000270 7a 0f e2 bd 61 92 2d 3e 88 40 86 3d c6 ed 8c 3d
       -0.11038108 0.1695037 0.06555277 0.06881289
000280 c3 23 d2 bd 3b fa 99 bd f0 13 d4 bc 2c 77 00 bd
       -0.10260727 -0.07518431 -0.025888413 -0.03136365
000290 de ad f0 bd e0 7c 67 3c c0 a1 8b 3c 58 e4 b1 bc
       -0.117519125 0.014128894 0.017044902 -0.021715328
0002a0 20 c4 c2 3c ba 35 8b bd e8 d0 36 3d 72 76 84 3d
       0.02377516 -0.06797357 0.044632822 0.06467904
0002b0 8d 01 b9 bd be 22 2e be 6a d8 b7 3d e4 8f 27 3d
       -0.09033499 -0.1700544 0.089768246 0.04090871
0002c0 82 a1 b2 bd 77 3d 29 3e b8 d7 9e bd 8a 57 ed 3d
       -0.087222114 0.16527353 -0.07755989 0.115889624
0002d0 42 30 b2 3d 96 3c 13 be ae 85 e2 3d 0b 79 21 be
       0.08700611 -0.1437858 0.110606536 -0.1576883
0002e0 09 96 c2 bd 70 38 ea bc a8 be ec bd 41 8f 2b 3e
       -0.09501273 -0.028591365 -0.11559802 0.16753866
0002f0 18 e6 0c bd 2c 81 8b 3d ee ce 1c be da 30 ca 3d
       -0.034399122 0.06811747 -0.15313312 0.09872599
000300 06 50 5a bd be 95 05 be 58 6e cd 3c 36 28 aa 3d
       -0.053298973 -0.13045403 0.02507703 0.08308451
000310 f1 f9 17 3e 35 87 d6 bd 62 d7 ac bd 80 0e 07 3d
       0.14841439 -0.104750074 -0.084395185 0.032972813
000320 b8 8c 3e 3d b0 09 87 3d ea c7 c0 3d f4 48 1f bd
       0.04652092 0.065936446 0.094131306 -0.038887933
000330 da 21 c3 3d a9 7a 01 3e 48 7f 37 bd 6e e2 f9 3d
       0.09527941 0.12644447 -0.04479912 0.12201391
000340 76 9a ab 3d bb e6 1a 3e 26 98 c7 bd a9 70 ad bd
       0.083790705 0.15127079 -0.09745817 -0.08468754
000350 a6 1b 4b bd 50 88 0e 3c ae ce d2 3d ea 80 c8 bd
       -0.049586914 0.008699492 0.10293327 -0.097902134
000360 22 d8 af 3d 7a bf 7b bd 46 2e d4 3d 30 67 05 bc
       0.08586146 -0.061461903 0.103603885 -0.008142278
000370 86 da 19 be 2a 43 c1 bd e8 33 fe bd 4a 32 ae 3d
       -0.15024766 -0.09436639 -0.12412244 0.085056856
000380 1b 84 eb bd 40 1c 6a bc 38 8f 17 3d b7 9c c0 bd
       -0.114998065 -0.014288962 0.03700182 -0.09404891
000390 5c a3 4a 3d 62 79 2b be b1 4e fb bd e2 20 1f be
       0.049472198 -0.16745523 -0.122708686 -0.15539888
0003a0 4a 7a 54 bd 58 e7 7f bd b8 2c c9 3c 0c e5 01 bd
       -0.051874436 -0.062476486 0.024557456 -0.031712577
0003b0 42 1b a5 3d ab 00 21 3e 28 09 7c 3d 73 5f 8a bd
       0.0806184 0.15722911 0.06153217 -0.06756487
0003c0 64 71 24 be 84 6e 7e 3d ec 04 ae bd 6e bb b2 3d
       -0.1605888 0.062117115 -0.084970325 0.087271556
0003d0 96 ca ea 3d ec 79 87 3d f1 c7 24 3e 4f cc 26 3e
       0.114644215 0.066150516 0.16091897 0.16288875
0003e0 08 bd 14 3d 1e eb ff bd bb e6 1c 3e 1f a8 a6 bd
       0.036313087 -0.12496017 0.15322392 -0.08137535
0003f0 82 e7 a5 bd 55 f3 12 3e 67 11 08 3e a8 3f 54 3d
       -0.08100797 0.14350636 0.13287888 0.05181852

fc2.bias f4 [68]
000000 cb 0c 95 bd 11 40 ba bd fc b0 00 bd c2 fd c2 3d
       -0.07277831 -0.09094251 -0.031418785 0.09521057
000010 ba cc f5 3d 1d 53 01 3e c4 94 5d bd 30 43 b2 bc
       0.12001939 0.12629361 -0.054096952 -0.021760553
000020 2e 3b f1 bd 0a 91 d8 3d d4 e8 e8 bd d9 86 90 bd
       -0.11778866 0.10574539 -0.113725334 -0.0705697
000030 35 04 11 3e d8 b4 2a 3d 1c 09 93 bd fd 81 ec bd
       0.14161761 0.041676372 -0.07179472 -0.11548231
000040 f8 87 f1 bd b7 b9 0d 3e 30 83 20 be f1 c0 17 3e
       -0.11793512 0.13840376 -0.15675044 0.14819695
000050 4d 7c 0c 3e 80 1a 2e 3c d0 38 61 bc 4d 94 08 3e
       0.13719292 0.010626435 -0.013746455 0.13337822
000060 44 e2 9a 3d a7 0b 26 3e 15 dd 0d 3e 64 52 e6 bd
       0.07562688 0.16215383 0.13853867 -0.112461835
000070 12 c0 d8 3d a2 22 b1 3d 82 60 f9 bd 7a af a8 3d
       0.105835095 0.08649184 -0.121766105 0.082365945
000080 c0 6e b6 bd 6f 42 d1 bd 40 ae 51 3b 58 a3 ac bc
       -0.08907843 -0.10217749 0.003199473 -0.021073982
000090 c8 e0 3c bd b4 56 e6 bd ba 22 c0 3d 99 19 2f 3e
       -0.046112806 -0.11247006 0.093816236 0.17099608
0000a0 e8 a6 1b bd 27 a6 ec bd 00 e3 10 bc 62 93 18 be
       -0.03800097 -0.115551285 -0.0088431835 -0.14899972
0000b0 dc 9b 0e be 24 01 6a bd ce ad dc 3d 71 8a 06 be
       -0.13926643 -0.057129994 0.10775338 -0.13138749
0000c0 88 33 e0 bc ff 61 b6 bd 38 b4 21 be 84 21 1e bd
       -0.027368322 -0.0890541 -0.15791404 -0.03860618
0000d0 f0 ac 23 bc 50 39 ec bc e3 65 00 3e 6a b0 8c 3d
       -0.009989962 -0.028835922 0.12538867 0.06869586
0000e0 66 ac da 3d 98 92 89 3d 80 66 93 3c 02 a2 be 3d
       0.10677414 0.06717414 0.017993212 0.09308244
0000f0 04 11 e0 bd 86 f6 b2 3d 96 4b a7 3d 63 10 95 bd
       -0.109407455 0.08738427 0.08168714 -0.07278516
000100 c0 de c0 bb 29 d9 04 be d2 ab 19 be 00 a8 46 b9
       -0.005885929 -0.12973465 -0.1500695 -0.00018945336

fc3.weight f4 [3, 68]
000000 d0 e0 b1 3c a4 49 d6 bc a0 75 19 3d 54 bb bf bd
       0.021713644 -0.026158161 0.03746569 -0.09361902
000010 66 84 88 bd 20 6a ab 3d 8f b1 f1 bd 38 fd 9b 3c
       -0.06665878 0.08369851 -0.11801445 0.019041643
000020 ec 33 bf 3d 90 30 ba 3d 1c 70 29 3d 64 3a e2 bd
       0.09336075 0.09091294 0.04136668 -0.110462934
000030 00 c8 7f 3c 5a ac 2e bd 7e a1 0b bd f2 49 be 3d
       0.015611649 -0.042644836 -0.034089558 0.09291448
000040 dc cd 28 bd 9c dd b1 bd 7e 5d c7 bd ea ce 9c 3d
       -0.041211948 -0.08684847 -0.09734629 0.07656653
000050 e0 bd bf 3b 00 4b f5 3d b0 28 cb 3c b4 72 e7 bd
       0.0058514923 0.11977196 0.024799675 -0.11301175
000060 00 c8 f5 3c d2 41 e3 3d bc 09 9a 3d f4 0e 15 3d
       0.030002594 0.110965386 0.07521388 0.036391214
000070 5a 97 ba bd 52 ec 94 bd 3a a3 a8 3d c6 10 a6 bd
       -0.09110899 -0.07271637 0.08234258 -0.08108668
000080 38 a2 e2 3c c0 8f 7e bc 5c 70 26 3d 00 01 02 3c
       0.027665243 -0.015537202 0.040634498 0.007934809
000090 70 2a bd bd 66 fe 45 bd 44 9d d8 3d 40 e2 69 3c
       -0.0923661 -0.048338316 0.10576871 0.014275134
0000a0 5c dc 7b 3d d3 97 7a bd ec 9b c4 3d 18 a8 d4 bc
       0.061489448 -0.061179947 0.09600052 -0.02595906
0000b0 88 6c 27 bd 58 85 c9 3c 98 fa 31 bd 96 9a 47 bd
       -0.040874988 0.024599716 -0.043451875 -0.04873141
0000c0 90 27 8e bc 40 dc e2 bb f0 40 8d bd 80 c8 29 3d
       -0.01735285 -0.0069232285 -0.068971515 0.041450977
0000d0 e5 b3 f0 bd f8 74 98 3d 74 57 e6 3d 20 b8 a0 3c
       -0.11753062 0.07444185 0.11247149 0.019619048
0000e0 48 1f e8 bc 4c 78 e3 bd f4 41 69 3d 98 7f cb 3d
       -0.028335229 -0.11106929 0.056947663 0.09936446
0000f0 88 53 d4 3d f0 2a 31 3c 54 23 25 3d 40 fa ed 3d
       0.10367495 0.01081346 0.040316895 0.11619997
000100 30 47 94 3c 44 cc 6f bd f3 cb eb bd 18 2b 59 3d
       0.018100351 -0.058544412 -0.115135096 0.053019613
000110 c4 7d 41 3d e4 b5 dc 3d 14 e1 7c bd 84 59 55 3d
       0.04723908 0.107768804 -0.06173809 0.052087322
000120 f0 56 24 bd b0 e6 f6 bc a4 e9 90 3d b4 a9 e3 bd
       -0.040121973 -0.030139297 0.070758134 -0.11116353
000130 a2 12 b7 3d 3c 05 67 3d 62 9a 93 bd 6c 78 7d 3d
       0.08939101 0.056401476 -0.072071806 0.06188242
000140 f4 e0 f9 bc 90 cf 32 3c 0e f3 04 bd 4b 2b f3 bd
       -0.030502774 0.010913745 -0.032458358 -0.11873492
000150 30 c6 4d bc 20 5b 72 3d f8 29 67 bc 7b 96 74 bd
       -0.012559459 0.059168935 -0.014109127 -0.05971382
000160 80 d1 7b 3b a0 49 b5 3c 38 97 0a bd b4 98 c0 bd
       0.0038424432 0.022129834 -0.03383562 -0.09404126
000170 96 27 85 bd 14 f6 a1 bc 3c e3 32 3d 5a db dc 3d
       -0.06501691 -0.01977066 0.04367374 0.107840255
000180 a0 7e 13 3b 1c d8 31 3d ac e5 8e 3d b0 97 58 bd
       0.0022505894 0.04341899 0.069774 -0.052879035
000190 58 d1 24 bd 7e bc a4 3d fe d1 b1 3d b0 66 eb 3c
       -0.04023871 0.080437645 0.08682631 0.028735489
0001a0 ef ec bf bd ba f6 8c 3d f1 43 cd bd ac 44 78 3d
       -0.09371363 0.06882997 -0.100227244 0.060612366
0001b0 70 78 6b 3c 14 72 20 3d bf 15 f2 bd ca a1 2e bd
       0.014371976 0.039171293 -0.11820554 -0.042634763
0001c0 c8 f3 52 3d 14 28 bf 3d 48 34 0e bd ca 78 dd 3d
       0.05150202 0.09333816 -0.034717828 0.10814054
0001d0 18 b1 dd bc 9a cb 95 bd 2a 19 57 bd 80 45 f7 3b
       -0.027061984 -0.073142245 -0.052514233 0.007546127
0001e0 9c 90 b0 bc 38 69 70 3d 26 72 89 bd da 4c 0d bd
       -0.02155333 0.058694094 -0.06711225 -0.03449712
0001f0 e0 1f f6 bd 24 b8 ca 3d 08 ed ba bc 4c c8 c3 bd
       -0.120177984 0.09898403 -0.022818103 -0.09559688
000200 60 bf bf bb 00 1c 68 b9 80 f3 09 3d 30 14 5a bc
       -0.005851671 -0.00022135675 0.033679485 -0.013310477
000210 5e 3b 9c 3d b6 60 2b bd e4 ab 14 bd 9c e8 eb bc
       0.07628511 -0.041840278 -0.03629674 -0.02879744
000220 38 5b b1 3c fe fc c6 3d 10 d8 b6 bb ba 17 bf 3d
       0.021649942 0.09716223 -0.005579956 0.09330697
000230 76 18 c3 3d 89 4e 81 bd f0 b5 2a bc 52 7a 6a bd
       0.0952615 -0.063138075 -0.010419354 -0.05724556
000240 a4 9e 4e 3d 00 a1 2e bd b0 85 17 3d 40 68 ed 3b
       0.05044426 -0.04263401 0.03699273 0.0072450936
000250 96 09 a3 bd f6 f7 a6 bd 71 93 f2 bd 10 ed 8a bd
       -0.07960813 -0.081527635 -0.118445285 -0.06783497
000260 48 c2 0a 3d e0 19 f2 3b 16 ca ba 3d 28 62 da bd
       0.033876687 0.0073883384 0.09120576 -0.10663253
000270 c0 3c 68 bb 55 b0 de bd 00 16 3a 3a 80 f8 34 3d
       -0.00354366 -0.108734764 0.0007098615 0.0441823
000280 5a c9 de bd 2e 56 db 3d 4a 46 1a bd 86 0d dc 3d
       -0.108782485 0.10709797 -0.03766469 0.10744767
000290 64 bf a6 bc 76 e5 8c 3d 6a c6 e1 3d 0c d7 34 bd
       -0.020354934 0.06879704 0.110241726 -0.044150397
0002a0 18 7d f1 bc 32 45 82 3d 2c a0 d4 bd 58 02 93 3d
       -0.029478595 0.06360854 -0.10382113 0.071781814
0002b0 fa fe 9b bd 16 aa e6 3d a4 c3 a2 bd 2e 67 4c bd
       -0.07616992 0.1126291 -0.07947472 -0.049903087
0002c0 ea 51 b9 3d 22 43 58 bd 0a e1 d4 3d c6 df aa 3d
       0.09048827 -0.052798398 0.10394485 0.08343463
0002d0 2c 00 e3 3d 3b ba f0 bd 80 25 b2 3a 2a 60 23 bd
       0.11084017 -0.11754271 0.0013591498 -0.03988663
0002e0 40 a3 ec 3c 97 85 bb bd dc ad 4b 3d d0 3f bc bb
       0.028886437 -0.091563396 0.049726352 -0.0057449117
0002f0 64 ca 6a bd 21 6c df bd 4a e8 81 3d 54 c3 33 bd
       -0.05732192 -0.10909296 0.06343134 -0.04388745
000300 a0 41 b7 3d 18 d8 b0 3c 08 12 17 3d d4 aa 96 bc
       0.08948064 0.021587417 0.03688243 -0.018392004
000310 00 9d 89 bc fa bc 28 bd 56 0d d7 bd 0c 24 9c 3d
       -0.016798496 -0.041195847 -0.105005905 0.07624063
000320 76 66 9c bd 62 c0 90 3d 58 88 27 bd 70 96 9b 3d
       -0.076367304 0.07067944 -0.040901512 0.07597053

fc3.bias f4 [3]
000000 d6 d8 d4 3d 76 e5 97 bd 04 13 cd 3d
       0.10392921 -0.07416813 0.100133926
