my_project/controllers/my_controller/results/curriculum learning/best_weights.pt (torch, 15290 bytes, 6 tensors)

fc1.weight f4 [34, 17]
000000 9a e3 7e 3d ab 6d 4d be c6 7e 04 3e 59 c9 e4 bd
       0.062228777 -0.20061366 0.12938985 -0.111712165
000010 63 f7 97 bd bb e0 7c 3e 50 13 88 3e 80 aa d8 bd
       -0.07420232 0.24695103 0.26577234 -0.10579395
000020 30 89 c4 bd e7 e9 86 3e fa a6 01 be c2 52 b4 3c
       -0.09596479 0.26350328 -0.12661353 0.022012118
000030 77 29 67 3e f6 ab 36 be d1 82 18 bc 0b 50 9f bd
       0.22574411 -0.17839035 -0.009308533 -0.07778939
000040 dc e5 98 bd 50 f5 37 b7 56 26 98 3d cc c6 0d be
       -0.07465717 -1.0964766e-05 0.07429187 -0.13845366
000050 2c 70 f0 3d 97 a4 00 be e9 4c 68 3e 36 61 c8 bd
       0.11740145 -0.12562786 0.22685589 -0.097841665
000060 c7 4c 8a bc 28 ff 49 be ff c0 03 3d f9 8c 29 3e
       -0.016882313 -0.1972624 0.032166477 0.16557683
000070 50 fc cf 3b 79 3b 19 3e dc fb 3b bd 79 eb 80 be
       0.0063472167 0.14964093 -0.04589449 -0.2517965
000080 24 ca 45 3e e3 e4 79 bd 8b 5c 06 3d 95 17 21 be
       0.19315392 -0.0610093 0.0328031 -0.15731652
000090 17 62 54 be ed c6 7f bb 36 d3 01 bd d2 2e 49 3e
       -0.20740543 -0.003902848 -0.031695567 0.19646767
0000a0 a0 e6 17 3e 62 e3 7a 3e f3 8f 4d bd f9 80 62 3e
       0.1483407 0.24500802 -0.05018611 0.22119512
0000b0 03 81 28 3e c6 3f 67 be ff 6d 33 3e 7a 4c cc bd
       0.16455464 -0.22582921 0.17522429 -0.09975524
0000c0 77 99 75 be ee e5 90 be df 7a 95 be 44 0c d0 3d
       -0.23984323 -0.28300422 -0.29195306 0.101585895
0000d0 92 77 cc bd 76 b5 25 3d 0a bb 59 3e 89 60 41 3e
       -0.09983744 0.040456258 0.21262756 0.18884481
0000e0 10 c6 52 be ab e3 b0 3e 00 76 47 3e 06 6c 9d 3e
       -0.20583367 0.34548697 0.19478607 0.30746478
0000f0 ea 44 c1 3e 40 95 9a 3d 17 30 b8 3d 53 6d 44 3e
       0.3774789 0.075479984 0.089935474 0.19182329
000100 81 d5 d4 3d a0 81 e4 3d 1f 3e 0a be 5c 68 ac bc
       0.10392285 0.111575365 -0.1350026 -0.021045856
000110 4b 22 a5 3c ff b0 4a 3d 4e 25 89 bd ca 0c bc 3e
       0.020157954 0.049485203 -0.066965684 0.36728507
000120 ba f2 de bc cf 9b 1b 3e 46 3f 90 3d 03 17 5b be
       -0.02721535 0.15196155 0.070433185 -0.21395497
000130 55 4d 98 bc 22 a9 82 be 8e 4b ba bd 5f 9e da 3d
       -0.018591562 -0.25519663 -0.09096442 0.10674738
000140 1b d7 ce bc 4f 96 79 bd 75 78 23 3d 6c e4 02 bb
       -0.025249055 -0.06093436 0.0399098 -0.0019972576
000150 ef 2b 3d 3e 34 af 29 3e 8a 58 3c bd 2a ed 47 bd
       0.1847379 0.16570741 -0.045982875 -0.04881016
000160 bc bb 3c be c3 80 fd 3d 52 ff a7 be b7 21 d3 bd
       -0.1843099 0.12378075 -0.3281198 -0.10309165
000170 4e 34 82 3c f4 5e 29 3e 0f 14 95 bd 41 37 e5 bc
       0.015894081 0.16540128 -0.072792165 -0.027980449
000180 0e 0b b1 3d 12 21 02 3e d6 79 df bd 84 76 8e 3e
       0.08644687 0.12707928 -0.1091191 0.27824795
000190 29 1d ab 3e 2f cc 3d 3d 7a 48 1f 3e a5 96 a2 be
       0.33420685 0.046337303 0.15554991 -0.31755558
0001a0 b9 6f 35 be d4 3b 53 be 4c b8 48 3d 45 e7 1b 3d
       -0.177184 -0.20628291 0.049003884 0.038062353
0001b0 f6 84 bd bc 02 79 83 bd 62 e5 79 3e 30 c7 a2 3e
       -0.02313469 -0.06419565 0.24403909 0.31792593
0001c0 8c cd dd bc 6f 51 f5 3d ec dc af 3d d5 64 60 3e
       -0.027075551 0.11978423 0.085870594 0.21913464
0001d0 4d b7 84 3e c9 fb 17 be d0 69 ce bd a6 0f 91 be
       0.25921097 -0.14842142 -0.10078776 -0.2833225
0001e0 76 a6 ba bd a4 0a c6 3e db b7 ee 3d 25 60 40 3e
       -0.09113781 0.38679993 0.116561614 0.18786676
0001f0 51 81 38 be c5 3f c6 bd 1a be 82 3d 09 ee 30 3e
       -0.1801808 -0.09680132 0.06383915 0.17278303
000200 1b 79 6f be 07 88 c3 3d db dc 8a 3d 6b 38 33 bd
       -0.23386042 0.095474295 0.06780406 -0.043754976
000210 61 e1 ec bd cd c5 f7 bd 3a da 08 3e bd 69 fa 3d
       -0.11566425 -0.120982744 0.13364497 0.12227199
000220 66 6d 12 3e 4c a3 50 3c 94 e6 65 3e 08 a3 38 3d
       0.14299545 0.0127342455 0.2245124 0.045077354
000230 c7 93 07 3d c5 de ff bd 5c 81 e4 3d 5d 46 8d be
       0.033099916 -0.12493662 0.11157486 -0.27592745
000240 25 50 2a be a5 20 d7 bd 7c 57 36 3e 82 23 59 bd
       -0.16632135 -0.10504273 0.1780681 -0.05301238
000250 3e a6 da bd 66 e8 8c 3e af 4d 8d 3e 1f 43 c2 bc
       -0.106762394 0.27521056 0.2759833 -0.023713646
000260 7d 47 d8 3e 81 ab ed bd 50 76 dc 3d e0 58 6d bd
       0.4224204 -0.116049774 0.10764754 -0.057946086
000270 76 b2 db 3d 1b 3e ed 3d 74 35 2a 3d a8 c6 29 bc
       0.10727398 0.11584111 0.041554883 -0.010362305
000280 a6 95 aa bd 8a 24 17 be a6 92 4d be 94 75 4d bd
       -0.083293244 -0.14760032 -0.20075473 -0.05016096
000290 4a 66 18 3d 9b c5 83 be 34 45 80 bd a8 40 61 be
       0.037206925 -0.25736699 -0.062631994 -0.2199732
0002a0 49 4b 5c be 1e 59 25 3e a1 f5 15 3d f6 d3 53 3c
       -0.21513094 0.16147277 0.036611203 0.012928953
0002b0 f8 7e 90 be f2 30 96 3d b8 16 0d 3e 1d b4 42 3c
       -0.2822187 0.07333554 0.13778198 0.011883763
0002c0 49 66 43 3e 03 cf 15 3e 15 6e c5 3e dc 42 9c 3e
       0.19081987 0.1462975 0.38560548 0.3051976
0002d0 0b 15 91 3d d6 da e8 3c c3 0c 1e 3e 19 f3 52 3e
       0.07084092 0.028424662 0.15434556 0.20600547
0002e0 24 93 21 be 1f c8 ec 3d 96 20 9c be 18 8e 69 3e
       -0.15778786 0.115616076 -0.3049361 0.2280811
0002f0 0f cb 92 be 9d 0f 6d 3d 71 5d 63 3e a1 c2 b4 3e
       -0.28670546 0.057876218 0.22203614 0.3530474
000300 c4 72 27 3e b2 6a a6 3e f3 2f 9c 3e b9 c5 03 bd
       0.16352373 0.32503277 0.30505332 -0.032170985
000310 60 81 ae 3e d1 7c ec bd 3f da b6 bd 30 27 63 3e
       0.3408308 -0.11547244 -0.08928346 0.22182918
000320 44 fb cf bd 6c 21 13 be 09 58 1f bc b2 d4 52 3d
       -0.10155347 -0.14368218 -0.009725579 0.051472373
000330 91 57 32 3e 4a 7d 92 3e 7f e4 46 3e ad 61 23 3e
       0.17416216 0.28611213 0.19423102 0.15955229
000340 67 c9 0b be 2e ee 77 3d 53 57 2a be 49 81 c2 3d
       -0.13651048 0.06052988 -0.16634874 0.094973154
000350 d2 8b 44 bb 0b 8a 81 bd 9e cc 52 be fd 0b 21 be
       -0.0029990566 -0.06325158 -0.20585868 -0.1572723
000360 ab 80 04 bd 4d 05 be bd 6d da 2b 3e 50 cf 2e 3c
       -0.03234927 -0.09278355 0.16782542 0.010669544
000370 f8 28 84 3e a2 19 07 3e f8 9b 67 3e ff 42 82 3e
       0.25812507 0.13193372 0.22618091 0.2544174
000380 5c 79 9e 3e 7c 62 94 3d 76 12 53 3e 7b d1 6c be
       0.30951965 0.07245347 0.20612511 -0.23126785
000390 21 1d fa bd 50 76 80 be b7 a4 56 3d 4c 62 0f 3e
       -0.12212587 -0.25090265 0.052403178 0.14002341
0003a0 05 7c 44 bc 0d b5 e3 3c 54 fd 30 3e de 02 20 bd
       -0.011992459 0.027796293 0.17284137 -0.039065234
0003b0 f4 ae 18 3e c2 71 b2 3e 54 73 04 3b 5c c8 f2 bd
       0.1491049 0.34852415 0.0020210342 -0.11854622
0003c0 b6 26 34 be 0c 3e d8 3d e6 b4 1c be 6b 02 28 be
       -0.17592892 0.105587095 -0.15303382 -0.16407172
0003d0 d0 74 77 3e 3c 29 64 bd 96 5e ad bb b2 58 54 3d
       0.24165654 -0.055703387 -0.0052908165 0.0518424
0003e0 bc cf a8 3e 0a f3 ef bd f4 48 95 3e 9d 9f 1d be
       0.3297099 -0.11716278 0.2915722 -0.15392919
0003f0 c8 8f 6b 3d 9e 22 d4 3d 0e 48 02 bd 20 6d c0 3e
       0.057510167 0.10358165 -0.031806998 0.37583256

fc1.bias f4 [34]
000000 29 ef 1a bd 86 f9 50 be ca 0c d0 3d d2 ec 44 3e
       -0.037825737 -0.20407686 0.10158689 0.19230965
000010 c5 b8 c7 3c 99 85 13 3e 9f 63 69 3e 7c 29 b6 3d
       0.024380097 0.14406432 0.22791909 0.08894631
000020 0f 0d 21 3e 32 83 4a be 70 e2 f2 3d 76 89 4d bd
       0.15727638 -0.1977661 0.11859596 -0.05017992
000030 a2 42 8e 3c d0 de 9d bd 80 04 d0 3e fb 27 a7 3b
       0.017365757 -0.07708514 0.40628433 0.0051012016
000040 3a 25 c6 bd 5f da 4e 3e a0 83 9f 3e c9 45 76 bd
       -0.09675069 0.2020049 0.3115511 -0.060125146
000050 e5 58 ad 3e 78 36 80 3e 2a f6 69 3e 1e b2 b2 3e
       0.33856884 0.25041556 0.2284781 0.34901518
000060 8a fd 46 3c 96 fb 59 3e a8 50 03 be 15 69 18 3d
       0.012145409 0.21287379 -0.12823737 0.03720959
000070 21 4d 3f 3d 1b b7 58 3e c4 66 99 3e 77 51 5c be
       0.046704415 0.21163599 0.29961216 -0.21515451
000080 7c 32 71 bd 05 93 5b 3e
       -0.058886036 0.21442802

fc2.weight f4 [68, 34]
000000 c4 38 7f be 03 3c 10 3d 29 78 74 3d cb ee 12 3d
       -0.24923998 0.03521348 0.059684906 0.035872262
000010 94 54 89 3d 19 7c 03 bd 73 8f 9b 3d 68 fd 0a 3e
       0.06705585 -0.03210077 0.0759572 0.1357323
000020 0d f4 72 bd 83 71 0b 3e 00 40 4c bd b3 4c c8 3d
       -0.059314776 0.1361752 -0.049865723 0.09780254
000030 ea 23 2c be 9d 19 18 3e a1 0a 57 bd 77 d6 ed 3d
       -0.16810575 0.1485352 -0.05250037 0.116131715
000040 0b fc e6 3d 99 22 17 bd f3 68 de bd e2 8f 28 be
       0.11278542 -0.03689823 -0.10859861 -0.16461137
000050 a2 a2 61 3c 37 4d b1 bd c2 a9 9e 3d 98 1c 95 3d
       0.013771685 -0.08657306 0.077472225 0.072808444
000060 8e d5 d6 3d 27 94 ea 3d 6c df 90 3d d7 70 c0 bd
       0.10489951 0.11454039 0.07073864 -0.093965225
000070 79 47 0c be d7 bd 17 be 00 31 18 bd d1 ad 1d bb
       -0.1369914 -0.14818512 -0.037156105 -0.0024059901
000080 7c 59 6c 3c 5c 95 be bd 0f 85 63 be 6c 9e 56 3e
       0.014425632 -0.09305832 -0.22218727 0.2095887
000090 b9 b0 5c be d2 ef 6f 3d b4 4f aa 3c db 3a 78 3e
       -0.2155179 0.05857832 0.020789959 0.24241202
0000a0 7c e0 08 3e 61 28 19 bd c7 03 31 3e e8 a0 ba bd
       0.13366884 -0.037392024 0.17286597 -0.09112722
0000b0 35 c8 0f 3d f3 c4 53 be d2 99 1a 3e 4e 10 fc 3c
       0.03510304 -0.20680599 0.1509774 0.030769493
0000c0 db 84 90 3e da 26 39 bd 7c eb 42 be a1 85 88 bc
       0.2822636 -0.045203067 -0.19035143 -0.016665282
0000d0 35 89 9a 3e 07 79 4d bb 80 82 04 3e 70 cc 77 3e
       0.30182806 -0.0031352655 0.12940407 0.2419908
0000e0 fc f1 3b 3d c4 d3 8a 3e d3 ff e0 3c 6c b9 33 3e
       0.04588507 0.2711469 0.027465736 0.17551202
0000f0 9f 79 8b bd 9c 9b b8 3d c0 11 44 3d ac ce 1f 3e
       -0.06810307 0.09014055 0.04786849 0.15606183
000100 14 cf 90 3e f4 fb c8 bd 21 5f 58 3c 84 78 87 3d
       0.28282988 -0.09813681 0.013206274 0.066147834
000110 f0 b5 f6 bd 87 93 5d 3d 72 a5 21 bc 51 17 c5 bd
       -0.120464206 0.05409577 -0.009866105 -0.09623588
000120 c7 94 9f 3d b2 f9 04 bd 2c 05 8c bd 6f 2e 2d 3e
       0.07792049 -0.03246469 -0.06836924 0.16912244
000130 fd f0 82 3e bc 5c 22 3e fa 13 d8 bd 79 e2 8c bd
       0.25574484 0.15855688 -0.10550685 -0.06879134
000140 97 1f cb 3d 06 cb 43 3e a1 e1 7b 3d 7e 24 db 3d
       0.09918135 0.19120416 0.061494473 0.1070032
000150 9c 34 52 bd dc 33 11 be e3 56 1f 3e e5 ba 72 3e
       -0.051319703 -0.14179939 0.15560488 0.23704107
000160 20 0f 83 3d 0d 0d 4c 3e b7 4c 8b bb d8 0f 6d 3e
       0.06399369 0.19926853 -0.0042510885 0.23150575
000170 d8 74 ae bd 25 c7 b0 bd 75 65 dd bd 1f ff ee bd
       -0.0851838 -0.08631734 -0.10810367 -0.11669754
000180 23 f2 64 bc 87 f5 35 3e 8f bd 1a 3c 4d 8a 5f bd
       -0.0139737455 0.17769442 0.009444608 -0.054575253
000190 12 d0 42 3c 15 7c e9 3d 2c 12 49 3e 93 0b 94 3d
       0.011890428 0.1140062 0.19635838 0.0722877
0001a0 16 3b b5 3c 81 91 26 3e 71 5d 2d 3e 36 22 a1 bc
       0.022122901 0.16266443 0.16930176 -0.019669633
0001b0 02 e4 31 be 8f 90 a8 3c a7 12 bb bd 36 ab 8c bd
       -0.17372134 0.020576743 -0.09134417 -0.068685934
0001c0 5f 86 18 be 79 ce 84 3d 6d c6 41 3e e3 4e 63 bd
       -0.14895009 0.06484694 0.1892335 -0.055495154
0001d0 cb b9 3c 3d 6e bd 63 bb a8 27 46 3e 02 a1 1b 3e
       0.046075623 -0.003475036 0.19351065 0.15198138
0001e0 f8 8d ac bd aa 93 31 3e f6 90 fd 3c 0f eb d6 bd
       -0.08425516 0.17341486 0.030952912 -0.104940526
0001f0 fd a8 39 be ee ea ee 3d 67 b3 e0 bd 15 e4 03 be
       -0.1813087 0.11665903 -0.10971718 -0.12879975
000200 8d 54 8a bd 48 c6 19 be 57 85 0b be 89 11 2c 3c
       -0.06754408 -0.15017045 -0.13625084 0.010502228
000210 83 cd f4 3d 50 79 05 bc eb 36 35 3e 68 20 cd bd
       0.11953261 -0.008146599 0.17696731 -0.100159466
000220 64 1a 52 be 47 e6 8f 3d c4 06 51 be 2a 88 6e bd
       -0.2051788 0.07026344 -0.20412737 -0.058235325
000230 d8 09 a4 bd 4b 0e 8b 3e 60 70 50 3e 0b a6 b2 bd
       -0.0800969 0.27159342 0.20355368 -0.087230764
000240 17 9e 01 3e d7 49 d0 bd 07 49 3b 3e bc 77 0e be
       0.12657963 -0.10170334 0.18289576 -0.13912863
000250 77 e9 47 3d 9b 3e 0c 3e 89 e5 27 3e 23 46 20 be
       0.048806634 0.13695757 0.16396154 -0.15651755
000260 63 c2 e3 bd 28 cb 3d 3e be fb a3 3e 33 42 b6 3d
       -0.11121061 0.18534529 0.32028002 0.08899345
000270 f7 57 98 3d 13 9e b4 3e 76 1d 1e 3e 87 2d 31 3e
       0.07438653 0.3527685 0.15440926 0.17302524
000280 ec 39 56 be 72 7b 2e 3e ec 65 84 bd d2 df 86 bc
       -0.20920533 0.17039278 -0.064647526 -0.016464148
000290 72 47 86 3e 8d 67 88 bc 66 97 09 3e c3 73 d3 3d
       0.26226383 -0.01665094 0.1343666 0.10324814
0002a0 32 02 0f 3e d2 67 2e 3c ac f7 6f bd ea 20 9c bd
       0.13965681 0.01064487 -0.058585808 -0.07623465
0002b0 b6 f3 fe bd 6b fc 24 be 9f a1 89 bd 42 30 e8 3d
       -0.12448828 -0.16111915 -0.0672028 0.113373294
0002c0 00 6b 10 3a 10 0b 88 bd 9c 37 b0 bd 3e 25 b9 3d
       0.00055091083 -0.06642735 -0.08604357 0.090403065
0002d0 00 ff 91 3c 20 7b 55 3c bc 5a 6b bd 1c 28 3f bd
       0.017821789 0.013029844 -0.057459578 -0.04666911
0002e0 65 a4 04 3e 36 b9 c9 3d fd c8 c6 bd 90 c3 41 3d
       0.12953337 0.09849779 -0.09706304 0.047305644
0002f0 7d 24 ff bd 1e 2b f5 3d 32 65 f2 bd b6 e4 d0 bd
       -0.124581315 0.119711146 -0.11835708 -0.10199873
000300 e0 b1 06 bd 96 1a d9 bd a0 6f 1a bc 22 c7 c6 bd
       -0.03288448 -0.10600774 -0.009426028 -0.0970595
000310 c0 8d 57 3d 08 c4 08 bd 18 3f bb bc c8 65 1f be
       0.052625418 -0.033390075 -0.022857234 -0.1556617
000320 76 89 b3 bd 10 fb 83 bd 60 45 77 3d b5 d5 2c 3e
       -0.08766453 -0.06444371 0.060368896 0.16878398
000330 2e b1 91 3d b0 d6 55 3c 8b 42 29 3e 90 6a 31 3c
       0.071138725 0.013051674 0.1652929 0.010828629
000340 b5 89 11 be 38 56 34 3d 83 23 09 3e ff 2b 9e bd
       -0.14212687 0.044027537 0.13392453 -0.07723235
000350 30 9b f6 3c 33 04 2f be 20 5a a5 bb eb 39 0f 3e
       0.030103296 -0.17091446 -0.005046144 0.13986938
000360 07 57 18 3e 87 ae 15 be 59 1e 2c be e0 38 bf bd
       0.14876948 -0.14617358 -0.16808452 -0.0933702
000370 ff b6 06 3e a8 92 13 3d 40 1b 9e bd 7e c2 d7 3d
       0.13155745 0.036028534 -0.07720041 0.10535143
000380 3e f9 f1 bd 92 69 d7 3d ac 9b f4 bd d6 a1 ec bd
       -0.11815117 0.10518183 -0.119437546 -0.11554305
000390 e1 6f 00 3e 5b cc cb bd 93 29 2f 3e 8c 64 1d be
       0.12542678 -0.09951087 0.17105703 -0.15370387
0003a0 16 72 b5 3d b7 69 25 3e 6a 13 18 be df 0d c1 bd
       0.08859651 0.16153608 -0.14851156 -0.09426474
0003b0 1c 4b 97 bd 98 ef 85 bd 10 b6 03 bd ea 56 a1 bd
       -0.07387373 -0.065398395 -0.03215605 -0.07877906
0003c0 94 bb 2d be 4f d5 2c be 82 f7 1f be 4a 33 8c bd
       -0.16966087 -0.16878246 -0.1562176 -0.0684572
0003d0 28 2a c8 bd 6a d8 9b 3d 95 6a 27 3e 88 d0 46 bd
       -0.09773666 0.07609637 0.16349252 -0.048538715
0003e0 8a cb 90 3d 4f d6 2e 3e d5 94 06 be 40 7e 3b bc
       0.07070072 0.1707394 -0.13142712 -0.011443675
0003f0 9a 16 d2 3d dc 98 03 bd 2f 24 e6 bd 0b ff e5 bd
       0.10258217 -0.0321282 -0.1123737 -0.11230286

fc2.bias f4 [68]
000000 d7 e7 14 be 23 da 41 3e d8 8b 9b 3d cd e7 19 be
       -0.14541565 0.18930869 0.075950325 -0.15029831
000010 bf 9c 61 3e dc 53 68 bd 8e ce 05 be 52 45 1a be
       0.2203245 -0.0567206 -0.13067076 -0.15065506
000020 d3 2c e8 bd 16 ea 9e 3d b4 3d cf bc c2 62 62 bd
       -0.113366745 0.07759492 -0.025297977 -0.055269964
000030 bb c3 26 be 1a da af 3d 76 b8 a0 3d 74 bf 99 3d
       -0.16285603 0.085865214 0.07847683 0.0750722
000040 6f 08 17 be 34 d0 a4 3d eb b6 ab bb 01 98 bf bd
       -0.14749311 0.08047524 -0.0052403114 -0.09355164
000050 49 18 bb bc 9b ed 26 bd 2a 55 94 3c 2f 57 f1 bc
       -0.022838729 -0.040753942 0.018107016 -0.029460518
000060 8e 22 0b 3e fd 65 c7 bd d9 2c 37 3e 8b 91 b0 3d
       0.135874 -0.097362496 0.17888202 0.0862151
000070 c4 98 03 be 3e 51 58 3e 59 2d 08 3e ed 91 4e 3e
       -0.12851244 0.21124741 0.13298549 0.20172854
000080 d1 05 cf 3d b9 81 e8 3d 5c 3d ed bb 84 69 0a be
       0.10108531 0.11352868 -0.0072399806 -0.13516814
000090 2a 32 d1 bd 99 cb c1 3d b7 26 27 be 81 6e d4 bd
       -0.10214646 0.09462661 -0.16323362 -0.103726394
0000a0 23 6b 20 be 67 7e 15 3d ed 76 b6 bc c7 a9 e0 bd
       -0.1566587 0.0364975 -0.022273505 -0.109698825
0000b0 3c 34 b2 bd ff 9c ab bd 4c a4 15 be e8 d6 85 bd
       -0.08701369 -0.08379554 -0.14613456 -0.06535131
0000c0 83 92 0c be 0c 3b 07 be 32 88 f3 bd 44 4d 79 3e
       -0.13727765 -0.13206118 -0.118912116 0.24345881
0000d0 47 cf ac bd 6b b7 ff bd 63 01 01 3e 66 94 be bd
       -0.084379725 -0.12486156 0.12598185 -0.093056485
0000e0 3c cd 31 be 81 65 33 3e b0 f2 ed 3d e5 6a 42 3e
       -0.17363447 0.1751919 0.116185546 0.1898609
0000f0 b0 4d 8d bd 95 a6 d0 bd fc 9e 84 3d 95 ec ed 3d
       -0.06899583 -0.10188023 0.06475636 0.1161739
000100 96 ac 19 3e 6d f8 5e 3c b1 eb 73 3e f9 be be 3d
       0.15007243 0.013609034 0.23820378 0.09313769

fc3.weight f4 [3, 68]
000000 b8 67 aa bb 74 86 64 3e 4c b8 26 3e 55 8a c0 bc
       -0.0052003525 0.22316915 0.16281241 -0.023503462
000010 b3 b3 39 3e 22 7d e9 bd b2 80 b9 3d c0 19 ae 3d
       0.18134956 -0.1140082 0.0905775 0.08501005
000020 ae 66 f3 bd 1d 69 9e bb f8 4f 25 bd 63 41 4f 3d
       -0.11884819 -0.004834308 -0.040359467 0.050599467
000030 3b aa 38 bd 93 21 a2 bd db b9 8b 3c 86 02 8e 3e
       -0.04508422 -0.0791656 0.017056396 0.277363
000040 b8 12 c8 bd b9 8e be ba 27 ba 90 bd b0 d0 0b be
       -0.09769195 -0.0014538384 -0.07066756 -0.13653827
000050 88 8e 9e bd a1 f8 d6 bd 6d 2f 90 3d b4 68 05 bd
       -0.077420294 -0.10496641 0.07040296 -0.032570556
000060 44 19 27 3e 42 a5 47 3d 91 87 1a 3e ce 15 ca bd
       0.16318232 0.048741587 0.15090777 -0.0986744
000070 98 38 10 bc 43 63 05 3e b4 35 b0 3d 5c 08 8f 3d
       -0.0088025555 0.13026147 0.08603993 0.06984016
000080 a5 47 44 3e 2a f4 9c 3e 46 03 44 3d b3 9d 94 bd
       0.19167955 0.30655032 0.047854684 -0.07256641
000090 c8 5b 9d bd d2 5c 8c 3e 17 dc bc bd 70 f1 1e be
       -0.076835215 0.27414566 -0.09221666 -0.15521789
0000a0 80 6a 10 3c 3f 53 a7 3d 58 95 55 be c9 a3 b0 bd
       0.008814454 0.08170175 -0.20857751 -0.086249895
0000b0 f8 78 5d 3d db 30 f3 bd 2e 0f 42 3d 4c bc e4 bd
       0.054070443 -0.11874553 0.047377758 -0.11168727
0000c0 48 da d9 bc 62 9c 89 bd 38 78 ce bd c2 e7 5b 3e
       -0.026593342 -0.06719281 -0.10081524 0.21475127
0000d0 c3 48 cd bd 29 61 8e 3d fa 88 54 3e cb 33 b5 3d
       -0.10023644 0.069521256 0.20755377 0.08847769
0000e0 a6 24 2b 3d 0a 79 f0 bb d3 f6 d9 bc 1b 92 d8 bb
       0.041782998 -0.0073386477 -0.026606953 -0.006609214
0000f0 61 00 19 be 46 26 b9 3d 76 31 87 3d 90 d8 05 3e
       -0.14941551 0.09040503 0.06601231 0.13070893
000100 20 29 11 3e f6 b2 c3 3c ad a7 5d 3e 3a ea 64 3d
       0.14175844 0.023889046 0.21645994 0.05588744
000110 b3 f7 74 3d 4e c4 1b bd 89 11 05 3e 8d c1 1e 3b
       0.059806537 -0.038029008 0.1299497 0.0024224252
000120 d2 8c b9 bd 9e 0f 2a bd d0 92 4e 3d fa 8a c2 3d
       -0.090600625 -0.0415188 0.05043298 0.09499164
000130 84 36 9d bd 6e ec c6 bd 42 60 88 bd 55 d8 93 3d
       -0.07676414 -0.09713064 -0.06658985 0.072189964
000140 05 be 62 3d d2 c9 38 bd e7 86 43 3e 38 95 70 3d
       0.055356998 -0.045114346 0.1909443 0.058736056
000150 74 27 1d 3e 55 94 64 3e 8d 91 50 3e 7c e6 86 bc
       0.15347081 0.22322209 0.20368023 -0.016467325
000160 b3 9b 8b bd 06 1c 0e be b3 03 2a 3e 48 d6 c9 bd
       -0.06816807 -0.13877878 0.16602974 -0.09855324
000170 09 8a b9 3d 5e fe 27 bd 2e 9b b9 bd cf 50 a9 3d
       0.09059531 -0.041014068 -0.09062801 0.08267366
000180 50 8f a6 bb c7 5e 4c 3d 3c 64 07 3e 73 71 8c be
       -0.005083002 0.049895074 0.1322183 -0.27430305
000190 2d 55 b5 be 6e f3 7d be c5 4e 92 3c 7a 6c 3b bd
       -0.35416546 -0.24799892 0.017859826 -0.04575775
0001a0 02 71 90 3d a7 da 98 be 3e be 21 3d 5e 65 bf 3c
       0.070528045 -0.29854318 0.03948807 0.023363765
0001b0 df a7 9a bd 56 3e aa be 37 0c 32 3e e3 09 1b 3d
       -0.0755155 -0.33250684 0.17387472 0.037851226
0001c0 5f 4d fb 3b 44 e2 9b bc 19 79 e7 3d e4 b8 af bd
       0.0076691355 -0.01902879 0.113023944 -0.08580187
0001d0 60 f0 a6 bb e8 d5 82 bd c8 e7 e8 3c 9e cf 53 bd
       -0.005094573 -0.06388456 0.028430834 -0.05171167
0001e0 d8 f2 86 3e c7 a3 f1 3c 06 f0 7c be 5e b8 80 bb
       0.2635715 0.02949704 -0.24700937 -0.0039282283
0001f0 a3 62 95 3d 97 2b 29 3e 7d 1e 6e 3e 53 57 9d 3d
       0.07294204 0.16520534 0.23253818 0.076826714
000200 98 c1 05 be 46 12 87 3d 49 49 ed 3d 66 65 b4 be
       -0.13062131 0.06595282 0.11586244 -0.3523361
000210 c5 4f ac be a3 b9 cb bb ee 5d 3c bd 23 38 46 3e
       -0.3365461 -0.006217198 -0.045988016 0.19357352
000220 b6 a4 c2 3c cb b1 30 be e2 ca 18 be 1d a1 53 3d
       0.02376018 -0.17255323 -0.14921144 0.05166732
000230 64 32 51 be da f3 7e bd a0 50 ca 3b 70 3d f4 bb
       -0.20429379 -0.062244274 0.006174162 -0.007453613
000240 ec e5 fd 3d 6c 7b 70 3d 74 1e 83 bd 39 a2 5d 3d
       0.1239737 0.058711454 -0.06402293 0.054109786
000250 17 53 9b bd 3f 0a b5 3b f8 ca 3c be 1d 8e 93 be
       -0.075842075 0.005524903 -0.18436801 -0.2881936
000260 b0 53 d3 bd dc 56 91 be 5a 72 5c be 33 9b 02 3e
       -0.103186965 -0.2838658 -0.21527997 0.12754516
000270 5a ba 41 bd 5c b4 df 3d 4a 09 87 bc 9e 7d 16 3d
       -0.04729686 0.10923073 -0.016483922 0.03674089
000280 c2 fb 35 bd 16 3f 70 bd c6 d4 e0 3d bc c6 1e 3d
       -0.044429548 -0.058653913 0.10978083 0.038763747
000290 28 31 7c 3d ba af f5 bd 67 9a 96 be e6 59 2e 3e
       0.061570317 -0.11996408 -0.29414675 0.17026481
0002a0 bc eb 10 3d 7d 1e 0b 3e d6 5c 64 bd 8b bd 02 3d
       0.035381064 0.13585849 -0.055752598 0.031919044
0002b0 82 a8 7b bd 32 ac 4c 3d 1c 88 d3 3c 12 48 07 bd
       -0.06144 0.049968906 0.025821738 -0.033027716
0002c0 2e ff 95 3d 18 39 c6 3d 55 dc 3f 3e 4d 2b 91 3c
       0.07324062 0.096788585 0.18736394 0.017720843
0002d0 b5 0b 0b 3d 40 8e 54 3d 1b 22 0a 3c dd 6c 63 3e
       0.03394671 0.051893473 0.008430983 0.22209497
0002e0 03 04 84 bd c0 c9 31 3d 3d 4a d0 bd 74 d6 23 be
       -0.06446078 0.043405294 -0.1017041 -0.15999776
0002f0 ad b4 d4 bd fa ea 65 bc 74 4b 19 3d d3 1f 06 3e
       -0.10386024 -0.014033074 0.037425473 0.13098077
000300 da 31 22 bc ac e0 68 bd 14 6e 5c be 6b f7 7c be
       -0.009899581 -0.05685489 -0.21526366 -0.24703757
000310 2b 66 e5 3d 24 7e b4 bd 87 53 59 be cc d9 a7 3d
       0.112011276 -0.08813122 -0.2122327 0.08195838
000320 a5 b3 66 3e bf cb b8 3d 81 c1 c0 bd cc 7b 29 be
       0.22529466 0.090232365 -0.09411908 -0.16551131

fc3.bias f4 [3]
000000 b9 bb b7 3d 53 27 2a be 15 9d 1b be
       0.08971352 -0.16616563 -0.15196641
