my_project/controllers/my_controller/results/curriculum learning/last_weights.pt (torch, 15290 bytes, 6 tensors)

fc1.weight f4 [34, 17]
0.05500673 -0.29678798 0.1654281 -0.09519529 -0.081329 0.24318822 0.29324964 -0.064077
-0.04774791 0.31092763 -0.16184035 0.01190824 0.23396747 -0.19107285 -0.023582982 -0.11656523
-0.17345977 0.0010430788 0.083297715 -0.13845366 0.11746553 -0.1255522 0.22685589 -0.097841665
-0.016974248 -0.1972624 0.032166477 0.1668885 0.007823456 0.15300347 -0.04589449 -0.2517965
0.19428928 -0.052220635 0.027193237 -0.19483703 -0.26076806 -0.03403874 0.007038527 0.2130358
0.1551957 0.24290796 -0.013655702 0.25737977 0.13658904 -0.25680292 0.18065813 -0.097240984
-0.24571659 -0.28777182 -0.33029467 0.12565084 -0.069475405 -0.02698619 0.17079361 0.24495614
-0.1708887 0.33272296 0.16078219 0.38375673 0.45446244 0.06539242 0.07010874 0.20436962
0.11803244 0.109746814 -0.12537774 0.0093973065 0.012152982 0.02719928 0.01359302 0.42041034
-0.076908365 0.120723076 0.08171819 -0.13003348 -0.089437574 -0.32792148 -0.093187 0.11319206
-0.029563328 -0.072561055 0.03428843 -0.028534686 0.16109884 0.25153637 0.08191387 -0.13112457
-0.2233168 0.1871772 -0.24789499 -0.11415587 -0.039092887 0.24624145 0.009383047 -0.002487049
0.0947185 0.15342318 -0.073211595 0.28501415 0.36714247 0.1752922 0.19681033 -0.24748282
-0.25526434 -0.24328806 0.10841876 0.08279785 -0.04226017 -0.09467668 0.32464275 0.39993542
-0.015793296 0.114730775 0.10054876 0.24247123 0.26112667 -0.13775931 -0.029722923 -0.28689167
-0.15954025 0.4759233 0.17457494 0.14002228 -0.21877971 -0.065131456 0.11417804 0.12472447
-0.28243703 0.11353237 0.098266214 -0.0428895 -0.11619087 -0.11052302 0.11519621 0.053627796
0.20586973 0.17171755 0.21196008 0.050461818 0.033812605 -0.10817132 0.09119739 -0.29125446
-0.12841262 -0.065909624 0.21837233 -0.008069528 -0.08903254 0.29487696 0.29293317 0.0026064804
0.58310926 -0.10637992 0.12815571 -0.057946086 0.106051 0.14208116 0.0691297 -0.052321594
-0.083293244 -0.15418689 -0.20824678 -0.05016096 0.037206925 -0.24651721 -0.062631994 -0.2199732
-0.21513094 0.18160997 0.06695329 0.055713054 -0.3461299 0.03293519 0.20318498 0.06093731
0.18554197 0.10383619 0.46296558 0.38338503 0.059395734 0.006322587 0.16593257 0.2224805
-0.15267394 0.13499925 -0.26235813 0.20685951 -0.37676713 0.049980003 0.21386287 0.37288892
0.16983382 0.3432298 0.33278236 -0.012183708 0.36006317 -0.14527537 -0.109654784 0.22229144
-0.10912973 -0.15909281 -0.037815753 -0.03989111 0.19626501 0.33806318 0.23894085 0.19266082
-0.15762824 0.06620472 -0.17083831 0.110708125 0.0032952225 -0.056429826 -0.18870552 -0.13875398
-0.030825919 -0.0890984 0.17382297 0.00788576 0.31020963 0.1369477 0.23252249 0.3192945
0.34815016 0.036494426 0.19133669 -0.20551343 -0.04649757 -0.26372615 0.03922911 0.1453285
0.0024124265 0.024964085 0.17035748 -0.03576698 0.13986015 0.354468 0.07599722 -0.017082682
-0.2631184 0.059876934 -0.08881038 -0.11479167 0.20854723 -0.121875905 0.08660514 0.14506057
0.35272074 -0.11253834 0.3174924 -0.121132046 0.06420579 0.13277006 0.070684776 0.35271242
00000000: bd4e 613d 98f4 97be fc65 293e c0f5 c2bd
00000010: d28f a6bd 5506 793e d124 963e cd3a 83bd
00000020: 5093 43bd e831 9f3e 7ab9 25be c71a 433c
00000030: 2b95 6f3e 9aa8 43be 1931 c1bc c0b9 eebd
00000040: 709f 31be ebb7 883a fe97 aa3d ccc6 0dbe
00000050: c591 f03d c290 00be e94c 683e 3661 c8bd
00000060: 940d 8bbc 28ff 49be ffc0 033d d2e4 2a3e
00000070: f42d 003c f1ac 1c3e dcfb 3bbd 79eb 80be
00000080: c5f3 463e 4ee5 55bd 5ac4 de3c 5c83 47be
00000090: 6483 85be 356c 0bbd 72a3 e63b 0f26 5a3e
000000a0: 9feb 1e3e ddbc 783e 2abc 5fbc 48c7 833e
000000b0: ffdd 0b3e ac7b 83be 72fe 383e 4826 c7bd
000000c0: 219d 7bbe d456 93be 621c a9be 9daa 003e
000000d0: 1f49 8ebd 2412 ddbc 85e4 2e3e c8d5 7a3e
000000e0: 73fd 2ebe aa5a aa3e 16a4 243e c37b c43e
000000f0: 4daf e83e 76ec 853d 2c95 8f3d 4546 513e
00000100: feba f13d f0c2 e03d 0663 00be 29f7 193c
00000110: 4d1d 473c 06d1 de3c 42b5 5e3c 0640 d73e
00000120: 2282 9dbd a93d f73d de5b a73d 7f27 05be
00000130: 0c2b b7bd 53e5 a7be d3d8 bebd 3dd1 e73d
00000140: cb2e f2bc e49a 94bd 0672 0c3d 93c1 e9bc
00000150: 18f7 243e 60c9 803e 76c2 a73d 8545 06be
00000160: 29ad 64be 61ab 3f3e 2fd8 7dbe 8eca e9bd
00000170: dd1f 20bd b826 7c3e 5abb 193c c2fd 22bb
00000180: c6fb c13d f71a 1d3e f6ef 95bd 60ed 913e
00000190: 19fa bb3e cc7f 333e a688 493e 236c 7dbe
000001a0: 02b2 82be 8120 79be a80a de3d eb91 a93d
000001b0: 0019 2dbd d9e5 c1bd 9337 a63e 56c4 cc3e
000001c0: f160 81bc f8f7 ea3d 82ec cd3d 614a 783e
000001d0: 65b2 853e c710 0dbe 7d7d f3bc 77e3 92be
000001e0: 855e 23be 38ac f33e c6c3 323e 0062 0f3e
000001f0: ca07 60be a463 85bd 2dd6 e93d 8b6f ff3d
00000200: 969b 90be a983 e83d cc3f c93d e6ac 2fbd
00000210: 7bf5 edbd e559 e2bd feeb eb3d d2a8 5b3d
00000220: 84cf 523e bad6 2f3e 100c 593e 0db1 4e3d
00000230: 167f 0a3d ed88 ddbd b2c5 ba3d 4e1f 95be
00000240: 997e 03be a0fb 86bd ff9c 5f3e 0e36 04bc
00000250: b156 b6bd 1dfa 963e 56fb 953e 7cd1 2a3b
00000260: a646 153f b7dd d9bd 403b 033e e058 6dbd
00000270: 4431 d93d b97d 113e df93 8d3d 2b4f 56bd
00000280: a695 aabd 2be3 1dbe a53e 55be 9475 4dbd
00000290: 4a66 183d 026f 7cbe 3445 80bd a840 61be
000002a0: 494b 5cbe f7f7 393e ce1e 893d 5f33 643d
000002b0: f037 b1be 0de7 063d b90f 503e 6799 793d
000002c0: b7fe 3d3e 12a8 d43d d309 ed3e 0b4b c43e
000002d0: f148 733d b42d cf3b 3aea 293e eed1 633e
000002e0: 8f56 1cbe 3e3d 0a3e ce53 86be fbd2 533e
000002f0: 9fe7 c0be d5b7 4c3d defe 5a3e 4ceb be3e
00000300: ebe8 2d3e d1bb af3e 7362 aa3e 2d9e 47bc
00000310: 335a b83e 11c3 14be b092 e0bd 5ea0 633e
00000320: 687f dfbd 3ae9 22be b1e4 1abd dc64 23bd
00000330: b2f9 483e 9e16 ad3e e9ac 743e e148 453e
00000340: 4c69 21be 5796 873d 3df0 2ebe f1ba e23d
00000350: a9f4 573b f622 67bd 053c 41be 8615 0ebe
00000360: a386 fcbc 3979 b6bd a6fe 313e 4633 013c
00000370: ccd3 9e3e 053c 0c3e 601a 6e3e 927a a33e
00000380: bd40 b23e 2e7b 153d c4ed 433e 1d72 52be
00000390: 3c74 3ebd 1d07 87be b4ae 203d ffd0 143e
000003a0: cd19 1e3b 7b81 cc3c 3172 2e3e 6680 12bd
000003b0: 8037 0f3e d47c b53e 6ea4 9b3d fbf0 8bbc
000003c0: 74b7 86be 8441 753d 37e2 b5bd e517 ebbd
000003d0: 688d 553e 139a f9bd 095e b13d c28a 143e
000003e0: d097 b43e 807a e6bd 5d8e a23e 1414 f8bd
000003f0: 537e 833d e0f4 073e 2ec3 903d b996 b43e

fc1.bias f4 [34]
-0.034545884 -0.20273006 0.085151955 0.22950761 0.01061004 0.2625708 0.30977592 0.08810065
0.26194787 -0.17854474 0.16438873 -0.08484513 0.06463235 -0.061073948 0.51322037 -0.029238718
-0.10174222 0.27968463 0.40830827 -0.061800987 0.44423604 0.32502112 0.26315036 0.45247763
-0.020407878 0.31199032 -0.030261045 0.069409765 0.14809224 0.3857386 0.41064012 -0.21517111
-0.04582037 0.272913
00000000: fc7f 0dbd 7898 4fbe 2664 ae3d 0b04 6b3e
00000010: bcd5 2d3c ae6f 863e f39a 9e3e 1d6e b43d
00000020: 081e 863e 6fd4 36be 8555 283e 49c3 adbd
00000030: f75d 843d ad28 7abd 6962 033f 0986 efbc
00000040: 3a5e d0bd d332 8f3e c80d d13e 0823 7dbd
00000050: e872 e33e 2b69 a63e a5bb 863e 26ab e73e
00000060: 6c2e a7bc 32bd 9f3e 03e6 f7bc b526 8e3d
00000070: 7ea5 173e 887f c53e 6c3f d23e d155 5cbe
00000080: 24ae 3bbd 41bb 8b3e

fc2.weight f4 [68, 34]
-0.2964326 0.03521348 0.0922969 0.047863744 0.059179507 -0.040286716 0.078477964 0.15608409
-0.068543136 0.17405152 -0.044497896 0.11432807 -0.15183714 0.14743404 -0.041425418 0.11812657
0.11673562 0.0063099233 -0.1032623 -0.15880069 0.0024347708 -0.098089054 0.0903567 0.09474808
0.10562997 0.13607708 0.11409193 -0.091243856 -0.13498919 -0.055975154 -0.033704583 -0.0025393819
0.014425632 -0.037450794 -0.28270665 0.21048939 -0.23003866 0.09286466 0.019059362 0.34870633
0.1973034 -0.06371978 0.28415555 -0.11924009 0.075271696 -0.24105647 0.24273501 0.06558735
0.3648097 -0.026327662 -0.25130245 0.032561116 0.4054499 0.015561616 0.22524975 0.35736215
0.11159161 0.3360063 0.0015124601 0.24124868 -0.14323731 0.09517026 0.108737655 0.2949121
0.3937918 -0.098067366 0.013026786 0.10628895 -0.18407144 0.055404358 -0.020792862 -0.05046481
0.10015062 0.086495236 -0.0044279885 0.17338812 0.40272245 0.1250516 -0.06553648 -0.0991385
0.24472268 0.25662357 0.15338933 0.14775595 -0.10482702 -0.09191612 0.2923854 0.26949692
0.17798088 0.34793273 0.09893051 0.31252828 -0.12559633 -0.007493597 -0.13058816 -0.082328565
0.09081371 0.33067387 0.15230748 -0.05450244 0.011335142 0.15712968 0.24532716 0.0722877
0.06205834 0.19973738 0.17649773 -0.024618074 -0.12370058 0.054447282 -0.1337864 -0.054319263
-0.08467161 0.11983199 0.17539708 -0.063835874 0.051858764 -0.008718043 0.23646832 0.16799754
-0.110337466 0.1673073 0.027329957 -0.14224234 -0.20676242 0.13407534 -0.08029041 -0.092341855
-0.0039280932 -0.13682713 -0.17837119 0.056129105 0.09501837 -0.008146599 0.18413824 -0.0684497
-0.2671736 0.07113896 -0.2177399 -0.022369048 -0.082881786 0.37919468 0.26984027 -0.11641774
0.23783435 -0.13162985 0.22558571 -0.17402168 0.13959518 0.17210828 0.24780513 -0.13811032
-0.17352557 0.23649661 0.42479086 0.10764213 0.17215495 0.46862945 0.21979691 0.23929073
-0.23433521 0.23799402 -0.14529702 -0.012636731 0.32304674 0.1235678 0.24700822 0.10332269
0.13940862 0.052766893 -0.058585808 -0.07623465 -0.12448828 -0.16111915 -0.0672028 0.113373294
0.00055091083 -0.06642735 -0.08604357 0.090403065 0.017821789 0.013029844 -0.057459578 -0.04666911
0.12953337 0.09849779 -0.09706304 0.047305644 -0.124581315 0.119711146 -0.11835708 -0.10199873
-0.03288448 -0.10600774 -0.009426028 -0.0970595 0.052625418 -0.033390075 -0.022857234 -0.1556617
-0.08766453 -0.06444371 0.060368896 0.16878398 0.08170447 0.013051674 0.16119173 0.0050899163
-0.16033676 0.0430954 0.14398214 -0.15053466 0.052153714 -0.17091446 -0.0058770524 0.13187712
0.088660985 -0.16009907 -0.16181293 -0.08513559 0.10651703 0.0349473 -0.070707075 0.08360824
-0.09646223 0.11372964 -0.16120194 -0.12227873 0.16586338 -0.10364908 0.12112956 -0.12216683
0.08252792 0.14199308 -0.13017243 -0.09426474 -0.07387373 -0.07754206 -0.03215605 -0.07877906
-0.16966087 -0.16878246 -0.1562176 -0.0684572 -0.09773666 0.07609637 0.16349252 -0.048538715
0.07070072 0.1707394 -0.13142712 -0.011443675 0.10258217 -0.0321282 -0.1123737 -0.11230286
00000000: 04c6 97be 033c 103d 2806 bd3d c60c 443d
00000010: 3666 723d af03 25bd 0eb9 a03d 82d4 1f3e
00000020: 5860 8cbd 903a 323e 6d43 36bd d624 ea3d
00000030: 327b 1bbe f3f8 163e b3ad 29bd 58ec f13d
00000040: 1613 ef3d 79c3 ce3b 2f7b d3bd a69c 22be
00000050: ad90 1f3b eae2 c8bd ef0c b93d 480b c23d
00000060: 8754 d83d ca57 0b3e 08a9 e93d 0fde babd
00000070: 9b3a 0abe 3446 65bd d10d 0abd c26b 26bb
00000080: 7c59 6c3c 0166 19bd edbe 90be 888a 573e
00000090: 418f 6bbe d42f be3d 6122 9c3c a389 b23e
000000a0: e709 4a3e 847f 82bd d67c 913e 2634 f4bd
000000b0: 0c28 9a3d 82d7 76be 878f 783e a952 863d
000000c0: 56c8 ba3e 1cad d7bc b7aa 80be ce5e 053d
000000d0: 2197 cf3e 26f6 7e3c dfa7 663e 2cf8 b63e
000000e0: 248a e43d 0509 ac3e bd3d c63a e509 773e
000000f0: cdac 12be a0e8 c23d d9b1 de3d b8fe 963e
00000100: 149f c93e 8bd7 c8bd 4d6e 553c 05ae d93d
00000110: 397d 3cbe aeef 623d cb55 aabc 30b4 4ebd
00000120: c51b cd3d 6a24 b13d a918 91bb a88c 313e
00000130: a331 ce3e 870d 003e fd37 86bd 2009 cbbd
00000140: 9598 7a3e 2a64 833e 1812 1d3e 564d 173e
00000150: 8caf d6bd 853e bcbd 8ab3 953e 80fb 893e
00000160: 9f40 363e 3d24 b23e 149c ca3d b503 a03e
00000170: 539c 00be d98c f5bb e7b8 05be e19b a8bd
00000180: 8afc b93d 164e a93e 7ef6 1b3e f33d 5fbd
00000190: 08b7 393c 9ae6 203e 0b37 7b3e 930b 943d
000001a0: e330 7e3d f587 4c3e d2bb 343e d8ab c9bc
000001b0: bb56 fdbd 1d04 5f3d 4dff 08be e07d 5ebd
000001c0: 4f68 adbd 796a f53d 4b9b 333e 62bc 82bd
000001d0: db69 543d 1fd6 0ebc c024 723e 8c07 2c3e
000001e0: 9cf8 e1bd 9b52 2b3e 13e3 df3c faa7 11be
000001f0: 87b9 53be 0c4b 093e 4c6f a4bd ba1d bdbd
00000200: 3cb7 80bb 691c 0cbe f0a6 36be a2e7 653d
00000210: fe98 c23d 5079 05bc bc8e 3c3e 5b2f 8cbd
00000220: faca 88be 4eb1 913d 35f7 5ebe 4b3f b7bc
00000230: edbd a9bd ce25 c23e 8128 8a3e 6d6c eebd
00000240: d98a 733e fac9 06be f1ff 663e bd32 32be
00000250: 0af2 0e3e 273d 303e a1c0 7d3e cb6c 0dbe
00000260: b0b0 31be 2b2c 723e 307e d93e 7a73 dc3d
00000270: 6349 303e 33f0 ef3e 7112 613e a108 753e
00000280: 92f5 6fbe b4b4 733e bec8 14be 4b0a 4fbc
00000290: 6266 a53e 1d11 fd3d b9ef 7c3e d99a d33d
000002a0: 22c1 0e3e 1922 583d acf7 6fbd ea20 9cbd
000002b0: b6f3 febd 6bfc 24be 9fa1 89bd 4230 e83d
000002c0: 006b 103a 100b 88bd 9c37 b0bd 3e25 b93d
000002d0: 00ff 913c 207b 553c bc5a 6bbd 1c28 3fbd
000002e0: 65a4 043e 36b9 c93d fdc8 c6bd 90c3 413d
000002f0: 7d24 ffbd 1e2b f53d 3265 f2bd b6e4 d0bd
00000300: e0b1 06bd 961a d9bd a06f 1abc 22c7 c6bd
00000310: c08d 573d 08c4 08bd 183f bbbc c865 1fbe
00000320: 7689 b3bd 10fb 83bd 6045 773d b5d5 2c3e
00000330: ac54 a73d b0d6 553c 720f 253e 50c9 a63b
00000340: 522f 24be cd84 303d 0e70 133e c225 1abe
00000350: 229f 553d 3304 2fbe 4a94 c0bb cc0a 073e
00000360: e493 b53d 03f1 23be 4ab2 25be 915b aebd
00000370: 9a25 da3d e624 0f3d dfce 90bd cc3a ab3d
00000380: fd8d c5bd 16eb e83d 1f12 25be 456d fabd
00000390: 17d8 293e f845 d4bd c612 f83d 9a32 fabd
000003a0: 6604 a93d a266 113e ec4b 05be df0d c1bd
000003b0: 1c4b 97bd 5fce 9ebd 10b6 03bd ea56 a1bd
000003c0: 94bb 2dbe 4fd5 2cbe 82f7 1fbe 4a33 8cbd
000003d0: 282a c8bd 6ad8 9b3d 956a 273e 88d0 46bd
000003e0: 8acb 903d 4fd6 2e3e d594 06be 407e 3bbc
000003f0: 9a16 d23d dc98 03bd 2f24 e6bd 0bff e5bd

fc2.bias f4 [68]
-0.13110153 0.25352296 0.15750164 -0.14213634 0.286231 -0.0567206 -0.12980555 -0.15065506
-0.13383313 0.08192238 -0.025297977 -0.04896657 -0.16534789 0.096497126 0.10790435 0.12255508
-0.13171703 0.10565196 -0.0065931412 -0.09467935 -0.022838729 -0.04979798 0.045838248 -0.029431881
0.23404759 -0.097362496 0.24958763 0.07960788 -0.12851244 0.28406414 0.18121819 0.2295838
0.15682387 0.16887727 -0.0072399806 -0.1506039 -0.10214646 0.15818202 -0.16323362 -0.10104215
-0.1566587 0.09368299 -0.030872323 -0.11015778 -0.08701369 -0.08379554 -0.14566377 -0.07721983
-0.13727765 -0.17738329 -0.16437761 0.3163016 -0.107605904 -0.12486156 0.19768795 -0.093056485
-0.17363447 0.1585877 0.12916242 0.2351386 -0.08543777 -0.10188023 0.111232325 0.16434631
0.1831526 0.013609034 0.31262928 0.13505097
00000000: 7b3f 06be c3cd 813e 1c48 213e 308c 11be
00000010: df8c 923e dc53 68bd bfeb 04be 5245 1abe
00000020: 8d0b 09be ecc6 a73d b43d cfbc 2c91 48bd
00000030: f550 29be 49a0 c53d f5fc dc3d 28fe fa3d
00000040: d4e0 06be 0e60 d83d 470b d8bb 3fe7 c1bd
00000050: 4918 bbbc f7f8 4bbd e3c0 3b3d 211b f1bc
00000060: 2caa 6f3e fd65 c7bd e693 7f3e 7509 a33d
00000070: c498 03be db70 913e 4391 393e 0418 6b3e
00000080: 7096 203e 2aee 2c3e 5c3d edbb e937 1abe
00000090: 2a32 d1bd 78fa 213e b726 27be 30ef cebd
000000a0: 236b 20be dedc bf3d f4e7 fcbc 679a e1bd
000000b0: 3c34 b2bd ff9c abbd e228 15be 6e25 9ebd
000000c0: 8392 0cbe f7a3 35be 9b52 28be 49f2 a13e
000000d0: 7c60 dcbd 6bb7 ffbd b66e 4a3e 6694 bebd
000000e0: 3ccd 31be d064 223e 2743 043e 2cc8 703e
000000f0: fff9 aebd 95a6 d0bd c6cd e33d 664a 283e
00000100: 5b8c 3b3e 6df8 5e3c f210 a03e cd4a 0a3e

fc3.weight f4 [3, 68]
0.0030820488 0.3247388 0.3155051 -0.05257275 0.28362077 -0.1140082 0.07834799 0.08501005
-0.1817593 0.012406807 -0.040359467 0.014421778 -0.044293277 -0.10305129 0.123742536 0.37129614
-0.11961967 0.081180595 -0.020098759 -0.21804026 -0.077420294 -0.16913773 0.14904729 -0.03241995
0.3016116 0.048741587 0.24229284 -0.124028064 -0.0088025555 0.23731807 0.1859977 0.12046198
0.2780086 0.38620672 0.047854684 -0.10856564 -0.076835215 0.3615885 -0.09221666 -0.2067625
0.008814454 0.21055466 -0.26648673 -0.08583972 0.054070443 -0.11874553 0.05912366 -0.1422626
-0.026593342 -0.11265218 -0.05535358 0.3177348 -0.09952587 0.069521256 0.32099468 0.08847769
0.041782998 0.009532957 0.030182872 0.0879424 -0.19499555 0.09040503 0.16980629 0.22411902
0.19566202 0.023889046 0.32511663 0.17054498 0.041346204 -0.099884614 0.059865218 -0.0109542385
-0.15493034 -0.0415188 0.009984722 0.09499164 -0.13055295 -0.12883455 -0.06658985 0.11285528
0.05428186 -0.029911105 0.14505619 0.01008363 0.17783713 0.19578728 0.19588472 0.028809875
-0.06816807 -0.14081286 0.14120032 -0.09871913 0.027796188 -0.041014068 -0.18219881 0.100305334
-0.005083002 0.0039305803 0.09365659 -0.33896998 -0.43964738 -0.32985502 0.017859826 -0.014661579
0.070528045 -0.38137922 0.03948807 0.07590868 -0.0755155 -0.48086149 0.20058645 0.037443887
0.0076691355 -0.01902879 0.116459295 -0.09474698 -0.005094573 -0.018425265 -0.017030822 -0.11199334
0.2730339 0.02949704 -0.34837067 -0.0039282283 0.07294204 0.1666798 0.21628201 0.041367743
-0.13760266 0.06595282 0.07021669 -0.4508599 -0.4041141 -0.006217198 -0.116731584 0.14672309
0.0329203 -0.24260294 -0.31154847 0.08963977 -0.2730129 -0.062244274 0.018844666 -0.007453613
0.22961478 0.068419375 -0.06402293 0.06252056 -0.07586008 0.011345623 -0.2914183 -0.3629978
-0.103339724 -0.37296787 -0.28932446 0.18548003 -0.04729686 0.1737132 -0.09810777 0.03673774
-0.16832747 -0.058653913 0.07705101 0.047834177 0.061570317 -0.21214107 -0.39559463 0.1631619
0.0023915707 0.10688019 -0.055752598 0.033904586 -0.06144 0.011746786 0.025821738 -0.021948546
0.07324062 0.05075285 0.22274214 0.01770634 0.03394671 0.051893473 -0.012179216 0.26015317
-0.06446078 0.08840212 -0.059120797 -0.23566692 -0.118362814 -0.014033074 -0.019240117 0.13098077
-0.009899581 -0.08240373 -0.2776617 -0.33962402 0.16126224 -0.08813122 -0.3097731 0.04339297
0.21636648 0.090232365 -0.1650492 -0.2934401
00000000: 33fc 493b 2a44 a63e e289 a13e 8656 57bd
00000010: be36 913e 227d e9bd e974 a03d c019 ae3d
00000020: 1c1f 3abe ec45 4b3c f84f 25bd 5249 6c3c
00000030: de6c 35bd 8e0c d3bd ba6c fd3d 871a be3e
00000040: 28fb f4bd 0342 a63d 27a6 a4bc f245 5fbe
00000050: 888e 9ebd 7132 2dbe da9f 183e c8ca 04bd
00000060: d66c 9a3e 42a5 473d 9d1b 783e 6d02 febd
00000070: 9838 10bc 8203 733e 2e76 3e3e c5b4 f63d
00000080: 2557 8e3e e3bc c53e 4603 443d aa57 debd
00000090: c85b 9dbd 2122 b93e 17dc bcbd 8cb9 53be
000000a0: 806a 103c a49b 573e f370 88be bccc afbd
000000b0: f878 5d3d db30 f3bd a72b 723d 49ad 11be
000000c0: 48da d9bc 30b6 e6bd 6fba 62bd 23ae a23e
000000d0: 38d4 cbbd 2961 8e3d 6a59 a43e cb33 b53d
000000e0: a624 2b3d 1f30 1c3c 1242 f73c 251b b43d
000000f0: eaac 47be 4626 b93d b3e1 2d3e 757f 653e
00000100: a05b 483e f6b2 c33c b075 a63e 58a3 2e3e
00000110: a35a 293d 4e90 ccbd 3b35 753d 6879 33bc
00000120: 0fa6 1ebe 9e0f 2abd f696 233c fa8a c23d
00000130: acaf 05be 34ed 03be 4260 88bd ab20 e73d
00000140: a856 5e3d 2208 f5bc 9c89 143e cf35 253c
00000150: f01a 363e 767c 483e 0196 483e b002 ec3c
00000160: b39b 8bbd 3f31 10be d196 103e 412d cabd
00000170: d5b4 e33c 5efe 27bd 5392 3abe e26c cd3d
00000180: 508f a6bb 19cc 803b 07cf bf3d 798d adbe
00000190: 7619 e1be c2e2 a8be c54e 923c 1f37 70bc
000001a0: 0271 903d 2344 c3be 3ebe 213d 0376 9b3d
000001b0: dfa7 9abd 7a33 f6be 8966 4d3e c35e 193d
000001c0: 5f4d fb3b 44e2 9bbc 3682 ee3d b40a c2bd
000001d0: 60f0 a6bb 95f0 96bc 3984 8bbc c45c e5bd
000001e0: 19cb 8b3e c7a3 f13c a45d b2be 5eb8 80bb
000001f0: a362 953d 1cae 2a3e 0879 5d3e 3971 293d
00000200: b6e7 0cbe 4612 873d c5cd 8f3d 1cd7 e6be
00000210: 0be8 cebe a3b9 cbbb f810 efbd 943e 163e
00000220: 70d7 063d e86c 78be 4883 9fbe 0e95 b73d
00000230: 59c8 8bbe daf3 7ebd 2160 9a3c 703d f4bb
00000240: 2320 6b3e 751f 8c3d 741e 83bd c80a 803d
00000250: 885c 9bbd fee2 393c c834 95be d9da b9be
00000260: c7a3 d3bd a5f5 bebe 5622 94be 7aee 3d3e
00000270: 5aba 41bd e0e1 313e baec c8bd 507a 163d
00000280: 095e 2cbe 163f 70bd eccc 9d3d c5ed 433d
00000290: 2831 7c3d 823b 59be 618b cabe ea13 273e
000002a0: e6bb 1c3b 00e4 da3d d65c 64bd 89df 0a3d
000002b0: 82a8 7bbd 9775 403c 1c88 d33c 70cd b3bc
000002c0: 2eff 953d 38e2 4f3d 8416 643e e30c 913c
000002d0: b50b 0b3d 408e 543d 568b 47bc cc32 853e
000002e0: 0304 84bd 2c0c b53d a628 72bd ab52 71be
000002f0: 3468 f2bd faea 65bc 739d 9dbc d31f 063e
00000300: da31 22bc 49c3 a8bd ad29 8ebe 33e3 adbe
00000310: ee21 253e 247e b4bd 949a 9ebe d4bc 313d
00000320: 2d8f 5d3e bfcb b83d a802 29be c83d 96be

fc3.bias f4 [3]
0.12785128 -0.18955177 -0.17264755
00000000: 72eb 023e dc19 42be 85ca 30be
