my_project/controllers/my_controller/results/reinforce with gradient clipping and baseline/best_weights.pt (torch, 15290 bytes, 6 tensors)

fc1.weight f4 [34, 17]
0.080837026 -0.11467771 0.07439855 -0.0418141 -0.049305987 0.39246142 0.2932042 -0.09175734
0.038361575 0.39475885 -0.21372998 -0.24225147 -0.10168523 -0.30939892 0.0146292355 -0.10726304
0.011331779 -0.03940211 0.08086187 -0.24525027 0.099000216 -0.08849067 0.21608417 -0.1546307
-0.03280725 -0.11295499 0.12160813 0.112936124 -0.029954564 0.11452881 -0.034168992 -0.20114604
0.17421149 -0.051520746 0.19220793 -0.10613522 0.03591454 0.09666303 -0.06592967 0.25280505
0.14618582 0.2819042 -0.0026427677 0.26140207 0.37362164 -0.009795845 0.11845881 -0.2707711
-0.3420242 -0.39840448 -0.27536738 0.13933091 -0.08560424 0.11819284 0.26465914 0.12838954
-0.2044928 0.27090532 0.12197713 0.30426526 0.37014452 0.2324714 0.32095113 0.1970705
0.06922348 0.04965311 -0.30300367 -0.036389172 0.09674567 -0.16789521 -0.2613338 0.1693792
-0.06012394 0.34924644 0.1744831 -0.16639173 0.18932788 -0.045276396 0.09266782 0.3279157
0.12234284 -0.159827 0.0064137396 -0.1934607 -0.042685498 -0.000362777 -0.3368046 -0.107085906
-0.17097983 0.18874802 -0.2524217 -0.007090347 -0.08308534 0.09121384 -0.116851 -0.1618084
-0.12082745 0.02261934 -0.06764071 0.4223276 0.3835432 -0.25880024 0.04944861 -0.22298646
-0.08981147 -0.058608335 0.17364153 -0.09717957 -0.32470456 -0.12414459 0.075371265 0.12991238
-0.22896929 0.20189787 0.42418885 0.4278562 0.20494981 -0.20298126 -0.034065768 -0.32712817
-0.09554547 0.106860064 -0.06109288 0.1439022 -0.12098768 -0.0016124061 0.06694423 0.2335034
-0.17663169 0.028780345 -0.025678016 -0.06801132 -0.14251527 -0.1349581 0.0029870917 0.121264085
0.041217748 -0.072471075 -0.10591531 -0.07307176 0.09219992 -0.22772348 -0.11310516 -0.43511447
-0.07471205 -0.041734107 0.08976464 -0.059862778 0.27674422 0.5070171 0.18159206 -0.08724241
0.35552314 0.009960718 0.28582802 -0.17422923 0.044950362 0.19362411 0.1561435 0.046270665
-0.13496903 -0.045139186 -0.09930872 -0.19447185 -0.055048212 -0.2926964 -0.059183005 -0.22983463
-0.1869952 0.35274664 0.019070216 0.11375406 -0.077703886 0.2454844 0.115460336 -0.14469652
-0.009372349 0.057215996 0.3822611 0.2969653 0.0791541 0.2003771 0.109319344 0.053267032
-0.34123918 0.066368334 -0.23396611 0.27726993 -0.2772064 0.17631216 0.21919346 0.17824094
0.1493785 0.373897 0.33037487 0.03265865 0.41521177 0.14483501 0.014555548 0.015423631
-0.32172963 -0.14069194 -0.08531029 0.042255484 0.19552255 0.2022575 0.24413575 0.18858533
-0.21444389 0.005726899 -0.025318583 0.30231804 -0.010121148 -0.073409244 -0.120630026 -0.13734666
-0.18858828 -0.13199218 0.298365 0.2871633 0.20068218 0.07316735 0.1321883 0.10614616
0.2074294 0.045620628 0.10200227 -0.28024513 -0.15978093 -0.22937891 0.07129931 0.0407214
-0.10037383 0.15322801 0.29465875 -0.05872134 0.20610635 0.28022873 -0.052388586 -0.21746323
-0.26454124 0.13961923 0.04427639 0.026719067 0.20917684 -0.19383612 0.0418831 0.08554587
0.29458347 -0.045523655 0.46219018 -0.13442114 -0.094608895 -0.24672863 -0.17128533 0.21004884
00000000: e28d a53d 26dc eabd 445e 983d 4345 2bbd
00000010: 13f5 49bd b4f0 c83e dc1e 963e 46eb bbbd
00000020: 0721 1d3d d51d ca3e 08dc 5abe c510 78be
00000030: 5940 d0bd 8969 9ebe 76af 6f3c baac dbbd
00000040: eda8 393c 1b64 21bd e89a a53d e322 7bbe
00000050: a0c0 ca3d 993a b5bd 2b45 5d3e 8357 1ebe
00000060: e560 06bd f254 e7bd af0d f93d 0e4b e73d
00000070: 4663 f5bc 158e ea3d c9f4 0bbd 3af9 4dbe
00000080: 7f64 323e 6b07 53bd 28d2 443e 6c5d d9bd
00000090: 201b 133d 44f7 c53d 2306 87bd aa6f 813e
000000a0: bcb1 153e bf55 903e 4932 2dbb 7ed6 853e
000000b0: 564b bf3e c07e 20bc 889a f23d 82a2 8abe
000000c0: cc1d afbe acfb cbbe f4fc 8cbe c3ac 0e3e
000000d0: 4751 afbd 160f f23d 6781 873e 8c78 033e
000000e0: 9066 51be 1ab4 8a3e 25cf f93d a8c8 9b3e
000000f0: 9583 bd3e fc0c 6e3e b553 a43e d9cc 493e
00000100: 0ac5 8d3d 0f61 4b3d 4c23 9bbe d00c 15bd
00000110: 9822 c63d b9ec 2bbe 8bcd 85be be71 2d3e
00000120: 8544 76bd 6ed0 b23e b3ab 323e 9862 2abe
00000130: 2bdf 413e be73 39bd a0c8 bd3d 91e4 a73e
00000140: e28e fa3d b0a9 23be 592a d23b 901a 46be
00000150: fdd6 2ebd 1b33 beb9 a771 acbe db4f dbbd
00000160: 5615 2fbe 2947 413e 6b3d 81be 2456 e8bb
00000170: a628 aabd 52ce ba3d 944f efbd 1ab1 25be
00000180: 6274 f7bd 324c b93c 3687 8abd 533b d83e
00000190: c65f c43e 7781 84be a08a 4a3d 9056 64be
000001a0: 13ef b7bd 4b0f 70bd 16cf 313e 1506 c7bd
000001b0: ad3f a6be 853f febd 405c 9a3d c007 053e
000001c0: ed76 6abe 51be 4e3e 482f d93e f80f db3e
000001d0: 5dde 513e 52da 4fbe 8c88 0bbd 587d a7be
000001e0: 58ad c3bd 73d9 da3d 873c 7abd 195b 133e
000001f0: 64c8 f7bd 5f57 d3ba 0e1a 893d 841b 6f3e
00000200: f0de 34be c2c4 eb3c b45a d2bc 8549 8bbd
00000210: 86ef 11be 7532 0abe 15c3 433b 4e59 f83d
00000220: f1d3 283d b76b 94bd 20ea d8bd a6a6 95bd
00000230: 50d3 bc3d 5830 69be aea3 e7bd 53c7 debe
00000240: a202 99bd 62f1 2abd 86d6 b73d ac32 75bd
00000250: 6bb1 8d3e dfcb 013f 45f3 393e 26ac b2bd
00000260: 2107 b63e 4832 233c 0d58 923e 2669 32be
00000270: df1d 383d 6645 463e 15e4 1f3e 4f86 3d3d
00000280: 5235 0abe dee3 38bd 5f62 cbbd a123 47be
00000290: 3c7a 61bd 4ddc 95be e169 72bd c559 6bbe
000002a0: ab7b 3fbe 359b b43e 2439 9c3c e3f7 e83d
000002b0: 3723 9fbd 4360 7b3e 7876 ec3d 532b 14be
000002c0: 7b8e 19bc 525b 6a3d bab7 c33e d60b 983e
000002d0: 8b1b a23d a82f 4d3e d2e2 df3d 882e 5a3d
000002e0: e7b6 aebe 1fec 873d d094 6fbe 53f6 8d3e
000002f0: ffed 8dbe 2d8b 343e 4074 603e cb84 363e
00000300: adf6 183e 6d6f bf3e e526 a93e 14c5 053d
00000310: a396 d43e a14f 143e 657a 6e3c 66b3 7c3c
00000320: bfb9 a4be 8c11 10be 29b7 aebd 1614 2d3d
00000330: 1037 483e 971c 4f3e b9fe 793e 831c 413e
00000340: 2e97 5bbe b6a8 bb3b eb68 cfbc 6ec9 9a3e
00000350: 2cd3 25bc 9657 96bd e00c f7bd 9aa4 0cbe
00000360: 491d 41be f528 07be 4cc3 983e 1107 933e
00000370: a17f 4d3e c3d8 953d 5f5c 073e 2863 d93d
00000380: 5f68 543e b2dc 3a3d 91e6 d03d 4a7c 8fbe
00000390: 9d9d 23be 4ee2 6abe 5f05 923d 7ccb 263d
000003a0: cb90 cdbd cee7 1c3e 83dd 963e ca85 70bd
000003b0: 8b0d 533e 247a 8f3e 6a95 56bd aeae 5ebe
000003c0: f371 87be 58f8 0e3e 295b 353d f2e1 da3c
000003d0: 7432 563e fa7c 46be 9d8d 2b3d ac32 af3d
000003e0: a5d3 963e 0377 3abd 31a4 ec3e b2a5 09be
000003f0: 4fc2 c1bd 6ea6 7cbe 6c65 2fbe 0b17 573e

fc1.bias f4 [34]
-0.03629143 -0.23955041 0.22909038 0.18367872 0.040378887 -0.071130656 0.08598127 0.035781547
-0.031105729 -0.07542327 0.05699855 -0.024994701 0.053989366 -0.15783967 0.24943972 -0.18717968
-0.21874444 0.17587662 0.14986502 -0.049922265 0.13400744 0.13649084 0.11990215 0.2359827
0.0019970112 -0.008653051 -0.117791206 0.012960616 -0.04785638 0.023155367 0.16154246 -0.21437661
-0.009370462 0.30929092
00000000: 53a6 14bd b44c 75be ab96 6a3e 4616 3c3e
00000010: 5564 253d f3ac 91bd f316 b03d ac8f 123d
00000020: 71d1 febc 8477 9abd 5077 693d b0c1 ccbc
00000030: f423 5d3d b9a0 21be 206d 7f3e 08ac 3fbe
00000040: 8bfe 5fbe 0019 343e 3776 193e 4a7b 4cbd
00000050: 3f39 093e 41c4 0b3e 428f f53d 73a5 713e
00000060: 4ae0 023b 87c5 0dbc 843c f1bd c358 543c
00000070: 0d05 44bd 53b0 bd3c 636b 253e 8b85 5bbe
00000080: 9186 19bc 615b 9e3e

fc2.weight f4 [68, 34]
-0.07773413 0.10901814 -0.21156976 -0.009673512 -0.026746165 0.008245359 -0.07006883 0.17155035
-0.08906009 0.24301241 -0.107835256 0.09852559 -0.08954747 0.20685963 -0.14175557 0.256501
0.0746814 -0.16235133 -0.120994635 -0.054045398 0.069484495 -0.027871033 0.19270144 0.044309683
0.053516187 0.12629403 0.2562812 -0.096823975 -0.14573157 -0.1799205 -0.014993228 0.018340748
-0.011428275 -0.103162855 -0.32479945 0.09701566 -0.38962048 0.07574733 0.06608766 0.15223292
0.28034192 -0.11661599 0.30571994 -0.2400368 0.08564532 -0.20003791 -0.073938824 0.10197699
0.24931003 0.08746035 -0.16097924 -0.056835987 0.37266818 0.14243321 0.14568985 0.3173294
0.053881485 0.26869264 0.29116353 0.096444644 -0.10121031 0.3084216 0.09861288 0.07605428
0.28751224 -0.09839213 0.06824306 -0.2709883 0.019146213 -0.0094770035 -0.07631065 -0.16747302
-0.018620664 -0.13505334 -0.16781503 0.00040026742 0.0851625 0.26017573 -0.12022343 0.011522249
-0.0037833964 0.16850446 -0.06148977 0.13960914 -0.022983195 -0.12565473 0.022865325 0.3088183
-0.02698476 0.09352567 -0.15092349 0.11895959 0.011282748 -0.11747859 -0.052168243 -0.20411327
-0.23972404 0.039819017 -0.08558405 -0.08100528 0.031231238 0.21625812 0.2578285 0.090933196
0.49358404 0.31066272 0.34894243 0.031721544 -0.16875938 0.05723578 -0.19448043 0.006255071
0.07004666 0.24686687 0.17139998 -0.07259346 0.26645684 -0.05879679 0.09604093 0.31251714
-0.16253951 0.020211084 -0.064327955 -0.29312944 -0.36750263 0.2423585 -0.09120366 -0.075276315
-0.29242906 -0.16384344 0.017976351 0.031209154 0.062033612 -0.0027095233 0.17990522 0.079657264
-0.31509688 -0.030246058 -0.40661708 -0.026156569 -0.04552862 0.17485647 0.33287674 -0.16151449
0.24346094 -0.2691728 0.23395336 -0.109898135 -0.15839013 0.21654919 0.10788982 -0.008810525
-0.10608923 0.13230631 0.3869412 0.24950804 0.09299437 0.4454151 0.19375922 0.1749569
0.049402542 0.076879345 -0.038051326 0.21001019 0.31125835 -0.093447566 0.1337784 0.08364993
0.2027076 -0.2816038 -0.12450522 -0.07623465 -0.19120634 -0.22800282 -0.0672028 0.04650829
0.00055091083 -0.06642735 -0.08604357 0.090403065 0.017821789 -0.053890754 -0.12441428 -0.04666911
0.06358629 0.09849779 -0.09706304 -0.0195052 -0.124581315 0.119711146 -0.11835708 -0.16780888
-0.09975632 -0.17244235 -0.009426028 -0.0970595 -0.014140108 -0.033390075 -0.022857234 -0.1556617
-0.15375854 -0.06444371 0.060368896 0.10173085 0.071138725 0.013051674 0.1218777 -0.03258842
-0.18553835 0.044027537 0.13392453 -0.11913157 -0.013295443 -0.17091446 -0.005046144 0.0964527
0.10535394 -0.14617358 -0.21149632 -0.13674884 0.13155745 -0.0073857666 -0.12039581 0.10535143
-0.11815117 0.10518183 -0.1628497 -0.15895887 0.12542678 -0.14290912 0.12764084 -0.19711365
0.045181774 0.16153608 -0.19191809 -0.09426474 -0.07387373 -0.10881248 -0.03215605 -0.07877906
-0.16966087 -0.16878246 -0.1562176 -0.0684572 -0.09773666 0.07609637 0.16349252 -0.048538715
0.07070072 0.1707394 -0.13142712 -0.011443675 0.10258217 -0.0321282 -0.1123737 -0.11230286
00000000: 1233 9fbd e744 df3d bea5 58be a67d 1ebc
00000010: c61a dbbc 8b17 073c 3f80 8fbd e5aa 2f3e
00000020: 2365 b6bd 3fd8 783e bbd8 dcbd c9c7 c93d
00000030: aa64 b7bd 03d3 533e 5f28 11be 1954 833e
00000040: 90f2 983d 6d3f 26be 09cc f7bd b55e 5dbd
00000050: e34d 8e3d cb51 e4bc 8753 453e 127e 353d
00000060: ca33 5b3d 3953 013e 4a37 833e a64b c6bd
00000070: a83a 15be 143d 38be 28a6 75bc 563f 963c
00000080: a93d 3bbc 0c47 d3bd 1d4c a6be 25b0 c63d
00000090: 567c c7be 6b21 9b3d f858 873d f2e2 1b3e
000000a0: fa88 8f3e 5dd4 eebd 5387 9c3e 35cc 75be
000000b0: d066 af3d bdd6 4cbe 3d6d 97bd 50d9 d03d
000000c0: 214b 7f3e 691e b33d bed7 24be dacc 68bd
000000d0: 5dce be3e 03da 113e b82f 153e 0079 a23e
000000e0: d5b2 5c3d 1592 893e 6313 953e c584 c53d
000000f0: 5a47 cfbd 70e9 9d3e 8df5 c93d 59c2 9b3d
00000100: ce34 933e d081 c9bd 04c3 8b3d fabe 8abe
00000110: 85d8 9c3c 6f45 1bbc c248 9cbd 0c7e 2bbe
00000120: 5d8a 98bc 6c4b 0abe b4d7 2bbe fcda d139
00000130: ad69 ae3d c135 853e b437 f6bd d1c7 3c3c
00000140: dcf2 77bb 6f8c 2c3e b2dc 7bbd b3f5 0e3e
00000150: 4147 bcbc a2ab 00be 1050 bb3c 6f1d 9e3e
00000160: 250f ddbc 638a bf3d b08b 1abe 16a1 f33d
00000170: 46db 383c 9d98 f0bd 5eae 55bd 1203 51be
00000180: 387a 75be 4419 233d b146 afbd 19e6 a5bd
00000190: a7d8 ff3c c572 5d3e 1902 843e 2f3b ba3d
000001a0: 0cb7 fc3e 2f0f 9f3e 95a8 b23e 73ee 013d
000001b0: 42cf 2cbe 1170 6a3d e125 47be 57f7 cc3b
000001c0: a074 8f3d abca 7c3e 7a83 2f3e e1ab 94bd
000001d0: 086d 883e e7d4 70bd 1bb1 c43d 3f02 a03e
000001e0: c270 26be b791 a53c 60be 83bd 1015 96be
000001f0: 4e29 bcbe d42c 783e fcc8 babd 782a 9abd
00000200: 43b9 95be 93c6 27be 2443 933c 57aa ff3c
00000210: f516 7e3d 4292 31bb 1339 383e 5923 a33d
00000220: 6154 a1be 95c6 f7bc 1d30 d0be 4d46 d6bc
00000230: 387c 3abd 930d 333e d26e aa3e 0e64 25be
00000240: d34d 793e 04d1 89be 7891 6f3e 4612 e1bd
00000250: 0631 22be 12bf 5d3e 57f5 dc3d 055a 10bc
00000260: 4f45 d9bd 4e7b 073e 281d c63e 097f 7f3e
00000270: d573 be3d 730d e43e d168 463e e727 333e
00000280: 525a 4a3d eb72 9d3d b5db 1bbd e90c 573e
00000290: 415d 9f3e 7061 bfbd 34fd 083e a850 ab3d
000002a0: 9592 4f3e 602e 90be 98fc febd ea20 9cbd
000002b0: 98cb 43be 9279 69be 9fa1 89bd 7a7f 3e3d
000002c0: 006b 103a 100b 88bd 9c37 b0bd 3e25 b93d
000002d0: 00ff 913c 8dbc 5cbd eacc febd 1c28 3fbd
000002e0: 8739 823d 36b9 c93d fdc8 c6bd 5fc9 9fbc
000002f0: 7d24 ffbd 1e2b f53d 3265 f2bd 17d6 2bbe
00000300: 0b4d ccbd ba94 30be a06f 1abc 22c7 c6bd
00000310: e9ab 67bc 08c4 08bd 183f bbbc c865 1fbe
00000320: e172 1dbe 10fb 83bd 6045 773d 4458 d03d
00000330: 2eb1 913d b0d6 553c 049b f93d 6f7b 05bd
00000340: c4fd 3dbe 3856 343d 8323 093e 41fb f3bd
00000350: 21d5 59bc 3304 2fbe 205a a5bb fe88 c53d
00000360: cec3 d73d 87ae 15be 7e92 58be e307 0cbe
00000370: ffb6 063e 4d04 f2bb 1492 f6bd 7ec2 d73d
00000380: 3ef9 f1bd 9269 d73d 12c2 26be 1dc6 22be
00000390: e16f 003e c556 12be 48b4 023e 29d8 49be
000003a0: 8610 393d b769 253e 2d86 44be df0d c1bd
000003b0: 1c4b 97bd 14d9 debd 10b6 03bd ea56 a1bd
000003c0: 94bb 2dbe 4fd5 2cbe 82f7 1fbe 4a33 8cbd
000003d0: 282a c8bd 6ad8 9b3d 956a 273e 88d0 46bd
000003e0: 8acb 903d 4fd6 2e3e d594 06be 407e 3bbc
000003f0: 9a16 d23d dc98 03bd 2f24 e6bd 0bff e5bd

fc2.bias f4 [68]
-0.14542922 0.09907427 0.009049415 -0.008476264 0.1323833 -0.1237967 -0.17408803 -0.15065506
-0.1999657 0.033352192 -0.050125726 -0.030852927 -0.16658239 0.19237176 0.06909684 0.011517969
-0.1775223 0.051046383 -0.041001815 -0.13807353 -0.020430788 0.10398007 -0.0287163 0.014262962
0.14347932 -0.11218183 0.14922129 0.032577988 -0.12851244 0.17295949 0.07908443 0.24461362
0.034836266 0.080111355 0.04198634 -0.12859303 -0.12238834 0.040241383 -0.15274188 0.04789018
-0.1566587 0.1398985 0.07682112 -0.12327431 -0.10956977 -0.08528879 -0.18089235 0.043363385
-0.13727765 -0.15009205 -0.09745491 0.14402474 -0.14533311 -0.12299372 -0.026005728 -0.08639436
-0.13907257 0.14688566 0.057139818 0.15482537 0.009418003 -0.10188023 0.06488395 0.13873693
0.18573761 -0.0074214153 0.124688365 0.06085888
00000000: 66eb 14be 73e7 ca3d ff43 143c 07e0 0abc
00000010: 7d8f 073e 2089 fdbd 2244 32be 5245 1abe
00000020: cfc3 4cbe 4f9c 083d a250 4dbd 47bf fcbc
00000030: 9394 2abe 1afd 443e a582 8d3d ddb5 3c3c
00000040: 68c8 35be 0316 513d 85f1 27bd 2663 0dbe
00000050: 785e a7bc 81f3 d43d 723e ebbc 33af 693c
00000060: 3eec 123e 96bf e5bd 77cd 183e 7f70 053d
00000070: c498 03be 4b1c 313e 05f7 a13d fe7b 7a3e
00000080: 79b0 0e3d 6c11 a43d def9 2b3d e4ad 03be
00000090: bda6 fabd 26d4 243d 5e68 1cbe 7e28 443d
000000a0: 236b 20be 8d41 0f3e 6454 9d3d 3e77 fcbd
000000b0: 1e66 e0bd e4ab aebd d83b 39be ce9d 313d
000000c0: 8392 0cbe bbb1 19be 7196 c7bd 397b 133e
000000d0: 34d2 14be 22e4 fbbd f709 d5bc 87ef b0bd
000000e0: 0a69 0ebe 3269 163e 710b 6a3d 8b8a 1e3e
000000f0: f84d 1a3c 95a6 d0bd e0e1 843d 0e11 0e3e
00000100: 0032 3e3e 582f f3bb 9d5c ff3d 2947 793d

fc3.weight f4 [3, 68]
0.013798465 0.26508734 0.16295113 0.02633383 0.20894828 -0.17999414 0.04716583 0.08501005
-0.091085516 -0.021301566 -0.02738851 -0.14071196 -0.06275183 -0.11737659 0.04249456 0.36984998
-0.07951507 0.044546675 -0.09596513 -0.09965076 -0.081925 -0.4195926 0.10667742 -0.171978
0.2952453 0.019499145 -0.030239066 -0.03507303 -0.0088025555 0.19691432 0.041210677 -0.032977454
0.16074343 0.23061815 0.24750474 -0.07729684 -0.09731159 0.22428346 -0.09792326 -0.08678996
0.008814454 -0.3557987 -0.19087385 -0.07582607 -0.008595023 -0.11911104 0.103040375 -0.16594069
-0.026593342 -0.099943176 -0.059931282 0.25517386 -0.016273804 0.08674684 0.032131977 0.11165955
0.007228881 0.037765294 -0.021767365 0.013387409 -0.28177845 0.09040503 0.13122356 0.0389098
-0.025533404 -0.022040593 0.19653712 0.042775013 0.14367037 -0.04052755 0.15782036 -0.23511189
-0.049017284 -0.10842491 0.007026435 0.09499164 -0.0018055037 0.0005641919 -0.06695392 0.23750004
0.037375465 -0.17227653 0.183146 0.018466767 0.08202516 0.21139695 0.24019742 0.05238295
-0.016706526 0.0851842 0.08125237 -0.09334613 -0.1707064 -0.025565708 0.05174597 0.1169038
-0.005083002 0.004684476 0.14531933 -0.29799214 -0.32798478 -0.30343673 -0.15469585 -0.06882714
0.050050408 -0.28358606 0.006061026 -0.26806915 -0.0755155 -0.0796237 0.07351114 -0.03228582
0.03416313 0.07289928 0.01729956 -0.15070856 -0.005094573 -0.003846022 0.05929029 -0.17940632
0.085352965 0.022845954 -0.020224385 -0.02446008 0.10749191 0.1771518 0.24691547 0.029132003
0.025346817 0.06595282 0.09001165 -0.38784537 -0.26461464 0.05035579 -0.0039236005 0.18260258
-0.12112528 -0.21235968 -0.15174954 0.18594477 -0.27499762 0.004712966 0.049588267 -0.007453613
0.015973842 -0.0067044175 -0.0844531 0.06878557 -0.04398933 0.18782502 -0.1728976 -0.3683246
-0.032498922 -0.29243013 -0.19509003 0.04340723 -0.10239185 0.2714971 0.05017904 0.17843555
0.08196427 -0.05424555 0.18088779 -0.0688492 0.061570317 -0.14376304 -0.22658801 0.28798836
0.048503365 0.24409713 -0.10370496 0.03417891 -0.040967863 0.068709925 0.04347319 0.123873085
0.07324062 0.3618613 0.26576373 0.09545352 -0.018465059 -0.068345025 0.016580293 0.32111424
-0.06446078 0.011202901 -0.17433164 -0.06229813 0.02708255 0.014532432 0.058068026 0.12499095
0.024632737 -0.06762022 -0.17377101 -0.20050047 0.10656854 -0.08813122 -0.26363093 0.20607093
0.32146257 0.061829273 -0.098322056 -0.12004947
00000000: f512 623c 87b9 873e a9dc 263e 0bba d73c
00000010: 8af6 553e 6250 38be f530 413d c019 ae3d
00000020: 0b8b babd 9f80 aebc de5d e0bc cc16 10be
00000030: 0884 80bd 2363 f0bd c70e 2e3d fa5c bd3e
00000040: ccd8 a2bd 9376 363d 5e89 c4bd b315 ccbd
00000050: 4bc8 a7bd d7d4 d6be b179 da3d 001b 30be
00000060: 642a 973e acbc 9f3c ebb7 f7bc bda8 0fbd
00000070: 9838 10bc e8a3 493e 87cc 283d 5e13 07bd
00000080: ed99 243e 2a27 6c3e e271 7d3e ce4d 9ebd
00000090: 4d4b c7bd 90aa 653e fd8b c8bd efbe b1bd
000000a0: 806a 103c 3f2b b6be 6f74 43be b34a 9bbd
000000b0: 24d2 0cbc 7df0 f3bd d506 d33d 5bec 29be
000000c0: 48da d9bc 02af ccbd 817a 75bd 26a6 823e
000000d0: a450 85bc 54a8 b13d d29c 033d c3ad e43d
000000e0: 40e0 ec3b c8af 1a3d 7951 b2bc dd56 5b3c
000000f0: 4445 90be 4626 b93d 785f 063e e25f 1f3d
00000100: 6e2b d1bc 798e b4bc 0741 493e da34 2f3d
00000110: 531e 133e 3700 26bd a99b 213e 2cc1 70be
00000120: 59c6 48bd e10d debd 023e e63b fa8a c23d
00000130: a7a6 ecba 47e6 133a 231f 89bd 3633 733e
00000140: 0417 193d 4269 30be a08a 3b3e 9e47 973c
00000150: cffc a73d 7178 583e 50f6 753e 818f 563d
00000160: 20dc 88bc 0e75 ae3d a467 a63d 412c bfbd
00000170: a9cd 2ebe 2d6f d1bc 95f3 533d 426b ef3d
00000180: 508f a6bb 3c80 993b 97ce 143e 6d92 98be
00000190: 9fed a7be 0f5c 9bbe 9768 1ebe 3ef5 8cbd
000001a0: a801 4d3d 3132 91be 929b c63b 5c40 89be
000001b0: dfa7 9abd c011 a3bd 028d 963d 233e 04bd
000001c0: a3ee 0b3d 384c 953d cfb7 8d3c 5853 1abe
000001d0: 60f0 a6bb 8b0d 7cbb 60da 723d 4ab6 37be
000001e0: 89cd ae3d 7027 bb3c 9cad a5bc 8160 c8bc
000001f0: b824 dc3d 4867 353e 69d7 7c3e 3da6 ee3c
00000200: 21a4 cf3c 4612 873d 0758 b83d ab93 c6be
00000210: 927b 87be df41 4e3d 8c91 80bb 2cfc 3a3e
00000220: 8810 f8bd d174 59be 3b64 1bbe 4e68 3e3e
00000230: 7dcc 8cbe 396f 9a3b 111d 4b3d 703d f4bb
00000240: 93db 823c bbb0 dbbb bff5 acbd 73df 8c3d
00000250: 282e 34bd 3455 403e 120c 31be 0b95 bcbe
00000260: 971d 05bd 67b9 95be aec5 47be c8cb 313d
00000270: d1b2 d1bd ab01 8b3e 8988 4d3d cfb7 363e
00000280: e2dc a73d 9530 5ebd a63a 393e cf00 8dbd
00000290: 2831 7c3d 9e36 13be b006 68be 3673 933e
000002a0: 77ab 463d 99f4 793e 4463 d4bd 2fff 0b3d
000002b0: ebcd 27bd cab7 8c3d f210 323d 2cb1 fd3d
000002c0: 2eff 953d e245 b93e 2f12 883e 237d c33d
000002d0: 0944 97bc 7af8 8bbd 65d3 873c 1669 a43e
000002e0: 0304 84bd 5f8c 373c fe83 32be 532c 7fbd
000002f0: 39dc dd3c 7019 6e3c bdd8 6d3d 41fb ff3d
00000300: 98ca c93c 787c 8abd 07f1 31be ff4f 4dbe
00000310: 9b40 da3d 247e b4bd a2fa 86be 4204 533e
00000320: be96 a43e b140 7d3d 135d c9bd 7fdc f5bd

fc3.bias f4 [3]
0.03248454 -0.17771737 -0.06559281
00000000: 820e 053d 8bfb 35be 8655 86bd
