my_project/controllers/my_controller/results/reinforce with gradient clipping and baseline/last_weights.pt (torch, 15290 bytes, 6 tensors)

fc1.weight f4 [34, 17]
0.13728707 -0.11143853 0.12836447 -0.091247566 -0.04415525 0.42120087 0.34424362 -0.11087752
0.101966545 0.455931 -0.15966661 -0.24008831 -0.1971662 -0.366485 0.03442188 -0.13069041
0.015035155 -0.03940211 0.08086187 -0.24525027 0.099000216 -0.08849067 0.21608417 -0.1546307
-0.03280725 -0.11295499 0.12160813 0.112936124 -0.029954564 0.11452881 -0.034168992 -0.20114604
0.17421149 -0.051520746 0.26598838 -0.12962702 0.059466474 0.120213814 -0.048120044 0.24159749
0.17846994 0.31763658 0.0061581 0.2719012 0.39787248 0.05085519 0.09357025 -0.33785275
-0.3176775 -0.39173555 -0.29766542 0.19440317 -0.090802416 0.12876122 0.2799063 0.14054157
-0.20909926 0.29924914 0.1377987 0.31595793 0.38488373 0.24415286 0.37457886 0.19163877
0.0394679 0.07809963 -0.29909775 -0.042293407 0.13488732 -0.17457327 -0.25874284 0.1634483
-0.054060034 0.33814222 0.18969691 -0.15879124 0.20200323 -0.02854651 0.098423496 0.36035562
0.108501375 -0.19981466 0.018995266 -0.20543891 -0.05069725 0.0010186261 -0.3359727 -0.1042942
-0.17366263 0.18701966 -0.2509195 -0.003478286 -0.080903746 0.08403813 -0.124176115 -0.16036394
-0.12286265 0.021587174 -0.067558445 0.42496225 0.38436538 -0.2579878 -0.03668348 -0.17682905
-0.15204495 -0.08502862 0.15864103 -0.08170978 -0.36534798 -0.20534423 0.08175918 0.13653387
-0.29318517 0.1330254 0.46146843 0.5167232 0.17876379 -0.21893845 0.007949908 -0.32712817
-0.09554547 0.106860064 -0.06109288 0.1439022 -0.12098768 -0.0016124061 0.06694423 0.2335034
-0.17663169 0.028780345 -0.025678016 -0.06801132 -0.14251527 -0.1349581 0.0029870917 0.121264085
-0.046733867 -0.026059713 -0.1767445 -0.035655312 0.10006539 -0.21693356 -0.17460029 -0.55586416
-0.068313435 -0.036429975 0.021609321 -0.10072812 0.33667707 0.5930186 0.13999599 -0.10592838
0.39865497 0.14077808 0.22709377 -0.19012786 0.16714875 0.27236146 0.10871458 0.06856918
0.19445515 -0.028387338 -0.077512115 -0.20905837 0.117682 -0.28224623 -0.2395557 -0.2932433
-0.02750209 0.29126838 0.042899687 0.111375675 -0.07145811 0.25234485 0.11970635 -0.16389821
0.008965679 0.08573243 0.38305882 0.29957 0.08520449 0.2348031 0.11740111 0.016940493
-0.3306528 0.09056053 -0.23727402 0.3746832 -0.31734872 0.2239447 0.2523868 0.19432743
0.13292173 0.42771664 0.3927133 0.031811733 0.41689855 0.19109955 0.09295931 -0.016111298
-0.40512878 -0.09880685 -0.063266106 0.003342898 0.31105885 0.18090653 0.3092614 0.22210865
-0.17834759 -0.0056362115 0.034105573 0.37005153 -0.02461558 -0.08689033 -0.05219576 -0.04374215
-0.1760065 -0.18136477 0.35008237 0.31191173 0.18295187 0.018423585 0.16276912 0.09195057
0.21601607 0.04341855 0.13046189 -0.30822083 -0.2293021 -0.2322351 0.06342632 0.024329413
-0.12383259 0.19079833 0.38661602 -0.08802649 0.21620636 0.31094894 -0.05787156 -0.18259524
-0.28300744 0.12591237 0.055824656 0.045479916 0.20886743 -0.21136561 0.06480063 0.110687904
0.27465174 -0.069351174 0.49047127 -0.10164495 -0.091539115 -0.25289533 -0.13877238 0.20873648
00000000: fb94 0c3e e239 e4bd fa71 033e 01e0 babd
00000010: 23dc 34bd a4a7 d73e b340 b03e c113 e3bd
00000020: d6d3 d03d ca6f e93e a57f 23be b6d9 75be
00000030: f0e5 49be eca3 bbbe f5fd 0c3d b5d3 05be
00000040: 0356 763c 1b64 21bd e89a a53d e322 7bbe
00000050: a0c0 ca3d 993a b5bd 2b45 5d3e 8357 1ebe
00000060: e560 06bd f254 e7bd af0d f93d 0e4b e73d
00000070: 4663 f5bc 158e ea3d c9f4 0bbd 3af9 4dbe
00000080: 7f64 323e 6b07 53bd a12f 883e f2bc 04be
00000090: 1e93 733d a932 f63d 8619 45bd 5565 773e
000000a0: d3c0 363e 43a1 a23e e3c9 c93b a236 8b3e
000000b0: f1b5 cb3e 884d 503d c2a1 bf3d 09fb acbe
000000c0: a0a6 a2be 9091 c8be 9a67 98be a011 473e
000000d0: 9ef6 b9bd fbd9 033e e14f 8f3e 21ea 0f3e
000000e0: 1e1e 56be 2f37 993e 1a1b 0d3e 3dc5 a13e
000000f0: 7b0f c53e 3503 7a3e cdc8 bf3e f43c 443e
00000100: 18a9 213d b3f2 9f3d 5723 99be da3b 2dbd
00000110: e71f 0a3e 56c3 32be f179 84be fe5e 273e
00000120: 0e6e 5dbd fa20 ad3e e83f 423e 2c9a 22be
00000130: efd9 4e3e 5fda e9bc 4292 c93d 8880 b83e
00000140: f835 de3d 379c 4cbe f69b 9b3c 945e 52be
00000150: eba7 4fbd 6c83 853a 9d04 acbe 3398 d5bd
00000160: 9ed4 31be 1582 3f3e 8578 80be f5f3 63bb
00000170: ddb0 a5bd 2f1c ac3d 0c50 febd 7236 24be
00000180: 6a9f fbbd 96d7 b03c 155c 8abd a794 d93e
00000190: 8acb c43e fa16 84be 6b41 16bd ad12 35be
000001a0: acb1 1bbe 7c23 aebd cb72 223e 7557 a7bd
000001b0: e40e bbbe c245 52be 5b71 a73d 89cf 0b3e
000001c0: 5e1c 96be cf37 083e 9745 ec3e f947 043f
000001d0: db0d 373e 6731 60be 5540 023c 587d a7be
000001e0: 58ad c3bd 73d9 da3d 873c 7abd 195b 133e
000001f0: 64c8 f7bd 5f57 d3ba 0e1a 893d 841b 6f3e
00000200: f0de 34be c2c4 eb3c b45a d2bc 8549 8bbd
00000210: 86ef 11be 7532 0abe 15c3 433b 4e59 f83d
00000220: 036c 3fbd 2e7b d5bc 83fc 34be 4e0b 12bd
00000230: 15ef cc3d d523 5ebe 6bca 32be 1d4d 0ebf
00000240: eae7 8bbd 9937 15bd 0806 b13c 8b4a cebd
00000250: f060 ac3e 11d0 173f 1c5b 0f3e faf0 d8bd
00000260: 811c cc3e 2128 103e 458b 683e e1b0 42be
00000270: 0b29 2b3e f672 8b3e c0a5 de3d 006e 8c3d
00000280: 401f 473e 908c e8bc acbe 9ebd 6613 56be
00000290: 4303 f13d 9482 90be 174e 75be fc23 96be
000002a0: 104c e1bc 2121 953e 95b7 2f3d ee18 e43d
000002b0: a158 92bd 5833 813e 9a28 f53d efd4 27be
000002c0: c9e4 123c 7c94 af3d 4920 c43e 3d61 993e
000002d0: b17f ae3d 3970 703e fe6f f03d cac6 8a3c
000002e0: 534b a9be cd77 b93d f6f7 72be 7ad6 bf3e
000002f0: 887b a2be c251 653e d838 813e c5fd 463e
00000300: a21c 083e adfd da3e b811 c93e 054d 023d
00000310: ba73 d53e 9aaf 433e 7361 be3d d7fb 83bc
00000320: 0a6d cfbe 3f5b cabd a991 81bd 8614 5b3b
00000330: 1b43 9f3e 903f 393e 8357 9e3e 7370 633e
00000340: c0a0 36be f8af b8bb 49b2 0b3d 6577 bd3e
00000350: 9da6 c9bc 8ff3 b1bd 39cb 55bd f82a 33bd
00000360: 0c3b 34be b0b7 39be ff3d b33e e5b2 9f3e
00000370: bc57 3b3e 0fed 963c f3ac 263e 9550 bc3d
00000380: 5133 5d3e a6d7 313d cd97 053e 1fcf 9dbe
00000390: 2bce 6abe 0acf 6dbe a9e5 813d 7a4e c73c
000003a0: f19b fdbd a360 433e 89f2 c53e 3b47 b4bd
000003b0: 3365 5d3e b334 9f3e bb0a 6dbd 3ffa 3abe
000003c0: 5ae6 90be 2cef 003e 65a8 643d 2649 3a3d
000003d0: 58e1 553e 3a70 58be 31b6 843d 57b0 e23d
000003e0: 279f 8c3e fd07 8ebd 0d1f fb3e 3a2b d0bd
000003f0: dc78 bbbd 7f7b 81be 591a 0ebe 04bf 553e

fc1.bias f4 [34]
-0.017872788 -0.23955041 0.26746187 0.21718414 0.05798977 -0.06977396 0.043884803 0.035781547
-0.06872207 -0.006554342 0.07369593 0.028208552 0.13671714 -0.17295738 0.25260684 -0.18790944
-0.21874444 0.21065518 0.10625545 -0.0651209 0.13228102 0.09181535 0.12005865 0.23795597
-0.057313606 -0.010256925 -0.11277236 -0.032326333 -0.08553928 0.025684392 0.12859151 -0.21437661
-0.009370462 0.36985245
00000000: f469 92bc b44c 75be c3f0 883e 8565 5e3e
00000010: ae86 6d3d a6e5 8ebd 8dc0 333d ac8f 123d
00000020: 28be 8cbd cec5 d6bb e4ed 963d 9f15 e73c
00000030: 94ff 0b3e bd1b 31be af55 813e 556b 40be
00000040: 8bfe 5fbe feb5 573e 759c d93d 1b5e 85bd
00000050: ad74 073e b009 bc3d 4fe1 f53d bbaa 733e
00000060: acc1 6abd a90c 28bc 32f5 e6bd 9e68 04bd
00000070: 382f afbd 1368 d23c 7ead 033e 8b85 5bbe
00000080: 9186 19bc 4d5d bd3e

fc2.weight f4 [68, 34]
-0.07773413 0.10901814 -0.21156976 -0.009673512 -0.026746165 0.008245359 -0.07006883 0.17155035
-0.08906009 0.24301241 -0.107835256 0.09852559 -0.08954747 0.20685963 -0.14175557 0.256501
0.0746814 -0.16235133 -0.120994635 -0.054045398 0.069484495 -0.027871033 0.19270144 0.044309683
0.053516187 0.12629403 0.2562812 -0.096823975 -0.14573157 -0.1799205 -0.014993228 0.018340748
-0.011428275 -0.103162855 -0.40331474 0.09701566 -0.43927413 0.05251334 0.04125944 0.14202362
0.31142518 -0.11661599 0.39151385 -0.29740107 0.068096355 -0.26675558 -0.14855649 0.17604946
0.24499038 0.08467019 -0.16097924 -0.09021269 0.43881744 0.21942097 0.18310468 0.36790594
0.051598858 0.2674222 0.31305617 0.0964931 -0.102800004 0.3766216 0.13189009 0.07636468
0.31926775 -0.09839213 0.06824306 -0.374771 -0.05073581 -0.0094770035 -0.08620206 -0.19429803
-0.06486625 -0.14415348 -0.1555867 0.00040026742 0.092627555 0.2774421 -0.12580127 -0.017861143
-0.039011713 0.17280886 -0.073942944 0.13974144 -0.022983195 -0.13430665 0.028339082 0.32226133
-0.030460395 0.08440034 -0.15999547 0.11326989 0.03992748 -0.11747839 -0.054483686 -0.19193265
-0.2173389 0.039990835 -0.09127139 -0.08100528 0.031231238 0.18145202 0.35515314 0.090933196
0.548009 0.3549389 0.3953 0.03868798 -0.16732942 0.05723578 -0.23586045 0.112561084
0.10640728 0.3152144 0.21758887 -0.11663015 0.2968228 -0.057316884 0.09604093 0.35883752
-0.19250342 -0.020869592 -0.080747046 -0.31561324 -0.36099127 0.26801732 -0.086674064 -0.075283796
-0.2881426 -0.20010109 0.013971258 0.030944249 0.05342569 -0.0027095233 0.17990522 0.13307828
-0.39747706 -0.030246058 -0.45806006 -0.050671738 -0.07220887 0.16246216 0.36362475 -0.16151449
0.33595225 -0.33648914 0.21411999 -0.18086737 -0.23575673 0.2958903 0.10300849 -0.012207523
-0.10608923 0.09754362 0.45691818 0.33186972 0.13501662 0.50111544 0.19085781 0.17244251
0.069893196 0.076937385 -0.04012126 0.2815946 0.3439227 -0.09334575 0.16820467 0.08364993
0.2027076 -0.38230544 -0.12450522 -0.07623465 -0.19120634 -0.22800282 -0.0672028 0.04650829
0.00055091083 -0.06642735 -0.08604357 0.090403065 0.017821789 -0.053890754 -0.12441428 -0.04666911
0.06358629 0.09849779 -0.09706304 -0.0195052 -0.124581315 0.119711146 -0.11835708 -0.16780888
-0.09975632 -0.17244235 -0.009426028 -0.0970595 -0.014140108 -0.033390075 -0.022857234 -0.1556617
-0.15375854 -0.06444371 0.060368896 0.10173085 0.071138725 0.013051674 0.1218777 -0.03258842
-0.18553835 0.044027537 0.13392453 -0.11913157 -0.013295443 -0.17091446 -0.005046144 0.0964527
0.10535394 -0.14617358 -0.21149632 -0.13674884 0.13155745 -0.0073857666 -0.12039581 0.10535143
-0.11815117 0.10518183 -0.1628497 -0.15895887 0.12542678 -0.14290912 0.12764084 -0.19711365
0.045181774 0.16153608 -0.19191809 -0.09426474 -0.07387373 -0.10881248 -0.03215605 -0.07877906
-0.16966087 -0.16878246 -0.1562176 -0.0684572 -0.09773666 0.07609637 0.16349252 -0.048538715
0.07070072 0.1707394 -0.13142712 -0.011443675 0.10258217 -0.0321282 -0.1123737 -0.11230286
00000000: 1233 9fbd e744 df3d bea5 58be a67d 1ebc
00000010: c61a dbbc 8b17 073c 3f80 8fbd e5aa 2f3e
00000020: 2365 b6bd 3fd8 783e bbd8 dcbd c9c7 c93d
00000030: aa64 b7bd 03d3 533e 5f28 11be 1954 833e
00000040: 90f2 983d 6d3f 26be 09cc f7bd b55e 5dbd
00000050: e34d 8e3d cb51 e4bc 8753 453e 127e 353d
00000060: ca33 5b3d 3953 013e 4a37 833e a64b c6bd
00000070: a83a 15be 143d 38be 28a6 75bc 563f 963c
00000080: a93d 3bbc 0c47 d3bd 457f cebe 25b0 c63d
00000090: 8ae8 e0be 3a18 573d a9ff 283d a46e 113e
000000a0: 1f73 9f3e 5dd4 eebd 8174 c83e f444 98be
000000b0: 1a76 8b3d 3094 88be 311f 18be 4f46 343e
000000c0: c2de 7a3e 9167 ad3d bed7 24be 6ec1 b8bd
000000d0: aeac e03e e4af 603e cb7f 3b3e 2b5e bc3e
000000e0: 5359 533d 90eb 883e e648 a03e 2d9e c53d
000000f0: cf88 d2bd 8cd4 c03e 320e 073e 1665 9c3d
00000100: 1077 a33e d081 c9bd 04c3 8b3d fce1 bfbe
00000110: 5ad0 4fbd 6f45 1bbc b58a b0bd 10f6 46be
00000120: 99d8 84bd f89c 13be 1f52 1fbe fcda d139
00000130: 84b3 bd3d e40c 8e3e 0cd2 00be 8851 92bc
00000140: bfca 1fbd cef4 303e 666f 97bd 6118 0f3e
00000150: 4147 bcbc af87 09be 5d27 e83c 70ff a43e
00000160: 1488 f9bc 16da ac3d dad5 23be 0bfa e73d
00000170: ff8a 233d 8398 f0bd 492a 5fbd fe89 44be
00000180: 178e 5ebe 6ecd 233d 7fec babd 19e6 a5bd
00000190: a7d8 ff3c 8fce 393e a2d6 b53e 2f3b ba3d
000001a0: 514a 0c3f 8dba b53e c364 ca3e 4a77 1e3d
000001b0: 6758 2bbe 1170 6a3d 6785 71be 6d86 e63d
000001c0: 0fec d93d c863 a13e 9ecf 5e3e cadb eebd
000001d0: 28f9 973e 1cc5 6abd 1bb1 c43d 8db9 b73e
000001e0: 9e1f 45be b5f6 aabc b55e a5bd 0f98 a1be
000001f0: d9d3 b8be 9139 893e 2c82 b1bd 642e 9abd
00000200: 6d87 93be 4de7 4cbe b4e7 643c cb7e fd3c
00000210: e5d4 5a3d 4292 31bb 1339 383e ac45 083e
00000220: 1d82 cbbe 95c6 f7bc d986 eabe 2b8d 4fbd
00000230: 3ee2 93bd 7b5c 263e 062d ba3e 0e64 25be
00000240: ef01 ac3e 4e48 acbe 4542 5b3e 4c35 39be
00000250: 366a 71be ef7e 973e 1df6 d23d 1002 48bc
00000260: 4f45 d9bd f3c4 c73d 2ef1 e93e d4ea a93e
00000270: cc41 0a3e 1a49 003f 3b70 433e c594 303e
00000280: 2a24 8f3d 5991 9d3d 3156 24bd 2b2d 903e
00000290: a316 b03e 0e2c bfbd d83d 2c3e a850 ab3d
000002a0: 9592 4f3e 8abd c3be 98fc febd ea20 9cbd
000002b0: 98cb 43be 9279 69be 9fa1 89bd 7a7f 3e3d
000002c0: 006b 103a 100b 88bd 9c37 b0bd 3e25 b93d
000002d0: 00ff 913c 8dbc 5cbd eacc febd 1c28 3fbd
000002e0: 8739 823d 36b9 c93d fdc8 c6bd 5fc9 9fbc
000002f0: 7d24 ffbd 1e2b f53d 3265 f2bd 17d6 2bbe
00000300: 0b4d ccbd ba94 30be a06f 1abc 22c7 c6bd
00000310: e9ab 67bc 08c4 08bd 183f bbbc c865 1fbe
00000320: e172 1dbe 10fb 83bd 6045 773d 4458 d03d
00000330: 2eb1 913d b0d6 553c 049b f93d 6f7b 05bd
00000340: c4fd 3dbe 3856 343d 8323 093e 41fb f3bd
00000350: 21d5 59bc 3304 2fbe 205a a5bb fe88 c53d
00000360: cec3 d73d 87ae 15be 7e92 58be e307 0cbe
00000370: ffb6 063e 4d04 f2bb 1492 f6bd 7ec2 d73d
00000380: 3ef9 f1bd 9269 d73d 12c2 26be 1dc6 22be
00000390: e16f 003e c556 12be 48b4 023e 29d8 49be
000003a0: 8610 393d b769 253e 2d86 44be df0d c1bd
000003b0: 1c4b 97bd 14d9 debd 10b6 03bd ea56 a1bd
000003c0: 94bb 2dbe 4fd5 2cbe 82f7 1fbe 4a33 8cbd
000003d0: 282a c8bd 6ad8 9b3d 956a 273e 88d0 46bd
000003e0: 8acb 903d 4fd6 2e3e d594 06be 407e 3bbc
000003f0: 9a16 d23d dc98 03bd 2f24 e6bd 0bff e5bd

fc2.bias f4 [68]
-0.14542922 0.07907945 -0.005568364 0.023422984 0.11155734 -0.1237967 -0.17408803 -0.15065506
-0.1999657 0.033352192 -0.050125726 0.00081775966 -0.16658239 0.24442524 0.04789396 -0.013759944
-0.1775223 0.04363105 -0.042386945 -0.13807353 -0.020430788 0.1504282 -0.030880744 0.08405989
0.1510942 -0.11643384 0.22897705 0.031856086 -0.12851244 0.15468282 0.078289784 0.27486557
0.043371547 0.09880137 0.032575004 -0.12859303 -0.12238834 0.046541475 -0.15274188 0.09238492
-0.1566587 0.21259098 0.1132857 -0.12291261 -0.10853352 -0.054047406 -0.19265255 0.08141921
-0.13727765 -0.15009205 -0.09806831 0.14142878 -0.14533311 -0.12299372 -0.026005728 -0.08639436
-0.13907257 0.14499119 0.060027476 0.13280573 0.0590429 -0.10188023 0.039453503 0.16404243
0.21813668 -0.0074214153 0.10509398 0.04764579
00000000: 66eb 14be 68f4 a13d d376 b6bb 8fe1 bf3c
00000010: 2d78 e43d 2089 fdbd 2244 32be 5245 1abe
00000020: cfc3 4cbe 4f9c 083d a250 4dbd ec5e 563a
00000030: 9394 2abe 9c4a 7a3e 752c 443d 6371 61bc
00000040: 68c8 35be 79b6 323d ef9d 2dbd 2663 0dbe
00000050: 785e a7bc da09 1a3e 9df9 fcbc 9727 ac3d
00000060: 70b8 1a3e dd74 eebd f678 6a3e 877b 023d
00000070: c498 03be 2c65 1e3e 6556 a03d 2ebb 8c3e
00000080: 5da6 313d 5f58 ca3d 5e6d 053d e4ad 03be
00000090: bda6 fabd 46a2 3e3d 5e68 1cbe 4e34 bd3d
000000a0: 236b 20be 73b1 593e 5502 e83d 9bb9 fbbd
000000b0: d246 debd d060 5dbd b646 45be 1dbf a63d
000000c0: 8392 0cbe bbb1 19be 0ad8 c8bd b5d2 103e
000000d0: 34d2 14be 22e4 fbbd f709 d5bc 87ef b0bd
000000e0: 0a69 0ebe 9278 143e 5fdf 753d 3afe 073e
000000f0: f8d6 713d 95a6 d0bd ff99 213d bdfa 273e
00000100: 395f 5f3e 582f f3bb 833b d73d 3b28 433d

fc3.weight f4 [3, 68]
0.013798465 0.32256338 0.1591216 -0.019584179 0.27287766 -0.17999414 0.04716583 0.08501005
-0.091085516 -0.021301566 -0.02738851 -0.16790856 -0.06275183 -0.20415455 0.08758011 0.43215153
-0.07951507 0.09129955 -0.097509965 -0.09965076 -0.081925 -0.5433023 0.10654124 -0.26138514
0.32138625 -0.014257276 -0.12503724 -0.03932224 -0.0088025555 0.25798416 0.09228436 -0.08272298
0.17090285 0.22662106 0.30132166 -0.07729684 -0.09731159 0.2348945 -0.09792326 -0.14739776
0.008814454 -0.47681513 -0.28558645 -0.07583912 -0.024496654 -0.15386273 0.11148635 -0.25048405
-0.026593342 -0.099943176 -0.059970684 0.30068696 -0.016273804 0.08674684 0.032131977 0.11165955
0.007228881 0.03627844 -0.026169812 0.07169444 -0.37474617 0.09040503 0.17926489 0.011334791
-0.080920875 -0.022040593 0.24899197 0.079399616 0.14367037 -0.0602063 0.13480239 -0.2731992
-0.069292724 -0.10842491 0.007026435 0.09499164 -0.0018055037 0.0005641919 -0.06695392 0.23916858
0.037375465 -0.2257899 0.17304611 -0.0018023932 0.08202516 0.20571828 0.23867616 0.05238295
-0.016706526 0.05045254 0.08104915 -0.10519267 -0.2032752 -0.027136039 0.012919629 0.11716078
-0.005083002 -0.014784666 0.13842154 -0.32656655 -0.36161536 -0.3439903 -0.1816794 -0.06882714
0.050050408 -0.3196146 0.006061026 -0.30362192 -0.0755155 -0.096960925 0.04753938 -0.032312296
0.039945908 0.06926465 0.01103774 -0.18937778 -0.005094573 -0.003846022 0.059200965 -0.20920952
0.085352965 0.022845954 -0.020224385 -0.02446008 0.10749191 0.17634009 0.24688573 0.017826978
0.010647881 0.06595282 0.075012974 -0.4240983 -0.29673752 0.05035579 -0.01828048 0.17833719
-0.12112528 -0.2663645 -0.11534132 0.24815027 -0.3372541 0.004712966 0.049588267 -0.007453613
0.015973842 -0.0067044175 -0.0844531 0.10203105 -0.04398933 0.2995823 -0.22451444 -0.428765
-0.032498922 -0.3526548 -0.19083561 0.04340723 -0.10239185 0.41182274 0.050612424 0.27471673
0.07221664 -0.024119245 0.3046186 -0.06361468 0.061570317 -0.20185229 -0.29189008 0.35316885
0.054896373 0.26829928 -0.14738408 0.03417891 -0.040967863 0.077434026 0.04347319 0.19944035
0.07324062 0.48383525 0.3776752 0.0955036 -0.009276415 -0.0107053155 0.011591483 0.42518577
-0.06446078 0.011202901 -0.17413323 -0.09472073 0.02708255 0.014532432 0.058068026 0.12499095
0.024632737 -0.0643431 -0.16744623 -0.2664632 0.21162006 -0.08813122 -0.31202775 0.2507873
0.39310348 0.061829273 -0.15015835 -0.16760528
00000000: f512 623c 0727 a53e c6f0 223e 006f a0bc
00000010: 9fb6 8b3e 6250 38be f530 413d c019 ae3d
00000020: 0b8b babd 9f80 aebc de5d e0bc 39f0 2bbe
00000030: 0884 80bd e40d 51be 335d b33d f742 dd3e
00000040: ccd8 a2bd 42fb ba3d 4eb3 c7bd b315 ccbd
00000050: 4bc8 a7bd dc15 0bbf 4b32 da3d 46d4 85be
00000060: bd8c a43e 5a97 69bc c309 00be 5b10 21bd
00000070: 9838 10bc 8016 843e 95ff bc3d aa6a a9bd
00000080: 2801 2f3e 5a0f 683e d546 9a3e ce4d 9ebd
00000090: 4d4b c7bd 2f88 703e fd8b c8bd 70ef 16be
000000a0: 806a 103c 1d21 f4be 6338 92be 8a51 9bbd
000000b0: 35ad c8bc 318e 1dbe f552 e43d 723f 80be
000000c0: 48da d9bc 02af ccbd d2a3 75bd a4f3 993e
000000d0: a450 85bc 54a8 b13d d29c 033d c3ad e43d
000000e0: 40e0 ec3b b498 143d 1362 d6bc 89d4 923d
000000f0: bbde bfbe 4626 b93d 3791 373e 8fb5 393c
00000100: d8b9 a5bd 798e b4bc c0f7 7e3e 449c a23d
00000110: 531e 133e e29a 76bd a309 0a3e c4e0 8bbe
00000120: 58e9 8dbd e10d debd 023e e63b fa8a c23d
00000130: a7a6 ecba 47e6 133a 231f 89bd 9ce8 743e
00000140: 0417 193d 7835 67be 0033 313e 483e ecba
00000150: cffc a73d d0a7 523e 8667 743e 818f 563d
00000160: 20dc 88bc 53a7 4e3d 19fd a53d 416f d7bd
00000170: 6027 50be 664c debc daac 533c fef1 ef3d
00000180: 508f a6bb 623b 72bc 60be 0d3e bb33 a7be
00000190: a625 b9be 7f1f b0be 2a0a 3abe 3ef5 8cbd
000001a0: a801 4d3d 86a4 a3be 929b c63b 5574 9bbe
000001b0: dfa7 9abd 7393 c6bd a7b8 423d e659 04bd
000001c0: 529e 233d a0da 8d3d a3d7 343c 40ec 41be
000001d0: 60f0 a6bb 8b0d 7cbb b67c 723d 053b 56be
000001e0: 89cd ae3d 7027 bb3c 9cad a5bc 8160 c8bc
000001f0: b824 dc3d 7f92 343e 9dcf 7c3e e209 923c
00000200: 7374 2e3c 4612 873d 67a0 993d 6a23 d9be
00000210: fbed 97be df41 4e3d f2c0 95bc 069e 363e
00000220: 8810 f8bd ee60 88be 1238 ecbd 1b1b 7e3e
00000230: 92ac acbe 396f 9a3b 111d 4b3d 703d f4bb
00000240: 93db 823c bbb0 dbbb bff5 acbd a8f5 d03d
00000250: 282e 34bd da62 993e 1de7 65be 1687 dbbe
00000260: 971d 05bd 2c8f b4be 696a 43be c8cb 313d
00000270: d1b2 d1bd 6eda d23e f94e 4f3d aca7 8c3e
00000280: 51e6 933d b995 c5bc f8f6 9b3e 6a48 82bd
00000290: 2831 7c3d 5eb2 4ebe 9e72 95be 8cd2 b43e
000002a0: 05db 603d 865e 893e daeb 16be 2fff 0b3d
000002b0: ebcd 27bd bb95 9e3d f210 323d 173a 4c3e
000002c0: 2eff 953d 41b9 f73e a55e c13e 6497 c33d
000002d0: 1bfc 17bc 5965 2fbc 34ea 3d3c f3b1 d93e
000002e0: 0304 84bd 5f8c 373c fb4f 32be f1fc c1bd
000002f0: 39dc dd3c 7019 6e3c bdd8 6d3d 41fb ff3d
00000300: 98ca c93c 51c6 83bd 0677 2bbe dd6d 88be
00000310: eeb2 583e 247e b4bd 1ac2 9fbe 3167 803e
00000320: dc44 c93e b140 7d3d 1cc3 19be b8a0 2bbe

fc3.bias f4 [3]
0.02467465 -0.1899112 -0.046057496
00000000: 7e22 ca3c 1578 42be c9a6 3cbd
